to_students/saved_models/actor_1.pt (torch, 73032 bytes, 6 tensors)

weight f4 [128, 4]
0	0x3e242426	0.16029415
1	0x3db7df1f	0.08978104
2	0xbe483eec	-0.19555253
3	0xbe41b54a	-0.18916813
4	0x3ef8f73b	0.48626122
5	0xbe2e4751	-0.17019393
6	0x3e9b2245	0.30299583
7	0x3eaa54a1	0.33267692
8	0xbe877ada	-0.26460916
9	0xbe4d0dde	-0.20024821
10	0xbf36d01c	-0.714113
11	0xbe92951c	-0.28629386
12	0x3eddb349	0.43300846
13	0xbdd6c249	-0.10486276
14	0xbf400cc3	-0.7501947
15	0xbf0d60c1	-0.5522576
16	0x3ebcb89b	0.36859593
17	0xbf0023e4	-0.50054765
18	0x3e980a04	0.2969514
19	0xbe853792	-0.2601896
20	0xbe6daf52	-0.2321141
21	0x3e374cfd	0.17900462
22	0x3e3787b8	0.17922866
23	0x3ef3d347	0.4762213
24	0x3e9a41d9	0.30128363
25	0x3bbbc271	0.0057299663
26	0x3ec02f0a	0.37535888
27	0x3e404a97	0.18778454
28	0xbede0888	-0.43365884
29	0xbea6edf9	-0.32603434
30	0xbd69569b	-0.05696736
31	0x3e97d2bd	0.29652968
32	0xbe52302b	-0.20526187
33	0x3ed07658	0.4071529
34	0x3dd5b6d8	0.10435265
35	0xbf10255f	-0.56307024
36	0x3eab910e	0.33509105
37	0x3cc99b0f	0.02461007
38	0x3eb6f44d	0.35733262
39	0xbe87cb44	-0.26522267
40	0xbe9df9ac	-0.30854547
41	0xbc65363e	-0.013989983
42	0x3f1a4c60	0.6027279
43	0x3ef7adfe	0.48374933
44	0x3e8fc17d	0.28077307
45	0x3efab6cb	0.48967585
46	0x3f2205fa	0.6329037
47	0x3d8da77d	0.069167115
48	0x3eba29ba	0.3635996
49	0x3e17b543	0.1481524
50	0x3eb249f2	0.3482204
51	0x3e8a7ac2	0.27046782
52	0x3ed2db59	0.41182974
53	0xbdcafd93	-0.09911647
54	0x3eae6fe8	0.34069753
55	0x3e32349f	0.17402886
56	0xbd8cbf6d	-0.06872449
57	0x3eef46ff	0.46733853
58	0x3e195595	0.14974053
59	0x3e3a50d2	0.18194893
60	0xbdb2f1ed	-0.0873755
61	0x3e1e0110	0.15430093
62	0xbf39f122	-0.72633564
63	0xbe43c56a	-0.19118276
64	0xbe3e3a2d	-0.1857688
65	0x3e3e59a9	0.1858889
66	0x3e0ea360	0.1392951
67	0x3f176df0	0.59152126
68	0xbe708e05	-0.23491676
69	0xbeeccdf9	-0.46250895
70	0xbf217e35	-0.630832
71	0xbed22124	-0.4104091
72	0xbecda5b6	-0.4016549
73	0xbe79ae52	-0.24382904
74	0xbe828386	-0.2549097
75	0xbe9283dc	-0.28616226
76	0x3ee18aa0	0.44051075
77	0x3e75e919	0.24014701
78	0xbd196aeb	-0.03745548
79	0xbd8840e2	-0.066530004
80	0xbdbe7828	-0.09300262
81	0x3eadfda0	0.33982563
82	0xbd51d32f	-0.05122679
83	0xbe6ee0da	-0.23327962
84	0xbc84ff5b	-0.016235044
85	0x3e82b2ce	0.25527042
86	0x3e612d75	0.21989997
87	0xbe768a53	-0.24076204
88	0x3ef4bbd3	0.47799549
89	0xbe795adf	-0.24351071
90	0x3e97bf19	0.29637983
91	0x3ee97271	0.45595124
92	0x3ee15f20	0.44017887
93	0x3e7c5061	0.24640037
94	0x3ecffe79	0.40623835
95	0x3d5b10c8	0.0534828
96	0x3ee83694	0.4535414
97	0xbe01ecaf	-0.12687944
98	0x3ba8ca7a	0.00515109
99	0xbdf0f0b2	-0.11764659
100	0xbec26924	-0.3797084
101	0xbe491fcb	-0.19641034
102	0x3f0a413c	0.5400579
103	0x3f013a49	0.5047956
104	0x3ef96d45	0.4871618
105	0x3edcc00d	0.43115273
106	0x3eed68cd	0.4636902
107	0x3e0e1375	0.1387461
108	0x3eac3da7	0.33640787
109	0xbeb3cf22	-0.35118967
110	0x3c841f71	0.016128274
111	0xbeea889a	-0.45807344
112	0x3e37643e	0.17909333
113	0xbdbd29de	-0.09236501
114	0x3f301479	0.6878124
115	0xbb9756de	-0.0046185097
116	0x3e69c71d	0.22829862
117	0x3ea546dc	0.32280624
118	0x3de4a307	0.111639075
119	0x3de02d04	0.10946086
120	0xbd84cf4a	-0.0648485
121	0xbeee8771	-0.4658771
122	0x3c1e7a9b	0.009672786
123	0xbf00fbf7	-0.5038447
124	0x3d65e6cb	0.056128304
125	0xbe99deec	-0.30052888
126	0xbf1f3f12	-0.6220561
127	0x3cbe7422	0.023248736
128	0x3e9c1706	0.30486315
129	0xbdc97190	-0.098361135
130	0xbd5698a2	-0.052391656
131	0x3ddf4227	0.109012894
132	0x3dda85a1	0.10670019
133	0xbd3b1c8b	-0.045681518
134	0x3f05177f	0.5198898
135	0x3e0acf6a	0.13555685
136	0x3e7ea985	0.24869354
137	0xbd248971	-0.040170137
138	0xbf1d8a13	-0.6153881
139	0xbef3118c	-0.47474325
140	0xbe01bf72	-0.12670687
141	0xbebbc65e	-0.3667478
142	0xbe2d7d80	-0.16942406
143	0xbdb1a30a	-0.08673675
144	0x3e0ff623	0.14058737
145	0x3d7c4538	0.06158945
146	0x3dfcd09b	0.12344476
147	0xbd78740e	-0.060657553
148	0xbec5c74a	-0.38628608
149	0x3efdf24a	0.49598914
150	0x3f0b6763	0.5445463
151	0x3e68e386	0.22743043
152	0xbe9b7069	-0.303592
153	0x3ebe047c	0.37112796
154	0x3f2b0129	0.66798645
155	0x3e96d279	0.29457453
156	0xbe070565	-0.13185652
157	0xbecac61c	-0.3960427
158	0x3d8d6de9	0.06905729
159	0x3e9fcd95	0.31211534
160	0xbecbf267	-0.39833376
161	0xbdb04e42	-0.086086765
162	0x3e65644f	0.22401546
163	0x3e838d36	0.25693673
164	0x3e97eec3	0.29674348
165	0x3d3f7127	0.04673877
166	0x3e227d25	0.15868051
167	0xbe929d8e	-0.2863583
168	0xbe7ef099	-0.24896468
169	0xbe8df3ae	-0.27724975
170	0xbedc1cf1	-0.4299083
171	0xbec8b6c6	-0.39201945
172	0xbedd1630	-0.4318099
173	0x3e55228f	0.20813964
174	0x3eb1d8b7	0.34735653
175	0x3efd1ec4	0.49437535
176	0x3eace506	0.3376848
177	0x3e814897	0.25250694
178	0xbef8a406	-0.4856264
179	0xbf13dd3d	-0.5775946
180	0xbe499b14	-0.19688064
181	0x3d36d435	0.04463597
182	0x3e17ee29	0.14836945
183	0xbd9f5fdd	-0.07781956
184	0xbecbe0e6	-0.3982002
185	0xbe968153	-0.29395542
186	0xbf051069	-0.51978165
187	0x3e8b9af3	0.27266654
188	0x3ec46393	0.3835722
189	0xbd90ead7	-0.07076042
190	0x3e87e589	0.2654231
191	0xbe4a9b30	-0.19785762
192	0xbeda7885	-0.42670074
193	0xbeddf329	-0.4334958
194	0x3d7fb022	0.062423833
195	0x3ebf517b	0.37366852
196	0x3e89c41b	0.2690743
197	0xbe12ea8c	-0.14347285
198	0xbf1265c1	-0.57186514
199	0xbe1d5c35	-0.15367205
200	0xbeee8c1f	-0.4659128
201	0x3c1766e5	0.009240841
202	0x3eebc4a3	0.4604846
203	0x3f09c71f	0.5381946
204	0x3eb92458	0.3616054
205	0xbd4aa4df	-0.04947364
206	0x3d843e9d	0.06457255
207	0x3e8f32cc	0.27968442
208	0x3ee061bb	0.43824562
209	0x3e19db5c	0.15025085
210	0xbb893eee	-0.00418841
211	0xbe562706	-0.20913324
212	0x3de44c59	0.11147375
213	0x3ed1071a	0.4082573
214	0xbf463756	-0.77428186
215	0xbe501d46	-0.20323667
216	0xbe86dbff	-0.2633972
217	0x3eecb3ef	0.46231028
218	0xbebb33c5	-0.36562935
219	0x3eef1250	0.4669366
220	0x3ec34b1e	0.38143247
221	0x3eae610d	0.3405842
222	0xbf0f5be0	-0.55999565
223	0x3d291a3b	0.04128478
224	0xbe5b4348	-0.21412385
225	0xbec3f385	-0.38271728
226	0x3e895af4	0.26827204
227	0xbe74a099	-0.23889388
228	0x3dce2da6	0.100673005
229	0xbe9ef92c	-0.31049478
230	0x3e08dee4	0.13366276
231	0xbe8aa282	-0.2707711
232	0x3dd180ad	0.10229621
233	0x3ddb1cae	0.106988296
234	0x3ee222a1	0.44167045
235	0x3d57124a	0.052507676
236	0x3eede0dc	0.46460617
237	0x3ea9a8c5	0.33136573
238	0x3ef9a25d	0.48756686
239	0x3ef40665	0.4766113
240	0x3db20802	0.086929336
241	0x3e01e93f	0.12686633
242	0xbd46f7f9	-0.04857633
243	0xbe8678ad	-0.26263943
244	0xbdc42e2c	-0.09579119
245	0x3d084252	0.033266373
246	0xbe9909f1	-0.29890397
247	0x3ea047f0	0.31304884
248	0x3e05e8c4	0.13077074
249	0x3e99cd4a	0.30039436
250	0xbdb56d7a	-0.088587716
251	0x3d1dc3dd	0.038516868
252	0xbeeaefc9	-0.45886067
253	0xbd6ec062	-0.05828894
254	0x3e818b5b	0.25301632
255	0x3da51615	0.080608524

bias f4 [128]
0	0x3ea4ffa4	0.32226288
1	0xbbe07f69	-0.006851126
2	0x3ecf663f	0.40507695
3	0x3ebad8d9	0.36493567
4	0x3bce12e8	0.006288875
5	0xbefad5e7	-0.4899132
6	0xbe61cc00	-0.22050476
7	0xbcac1688	-0.021006837
8	0x3e107e31	0.14110638
9	0xbe2a63af	-0.16639589
10	0x3d9ff408	0.07810217
11	0x3eb7d1e9	0.35902336
12	0x3e409f4b	0.18810765
13	0xbe927258	-0.28602862
14	0xbd055f7d	-0.032561768
15	0x3e36be26	0.17845973
16	0x3e90a755	0.28252664
17	0xbd533cd0	-0.051571667
18	0x3ca0c332	0.019624326
19	0xbe40124a	-0.18756977
20	0xbeac845c	-0.33694732
21	0xbe44c807	-0.1921693
22	0xbe2677a1	-0.16256572
23	0xbd5daf30	-0.05412215
24	0xbe81f635	-0.25383154
25	0x3e052950	0.1300404
26	0xbe332ba4	-0.17497116
27	0x3ead5b51	0.3385873
28	0x3e961bf9	0.29318216
29	0x3efc4a9a	0.49275666
30	0x3e92c276	0.28663987
31	0x3e2fe69b	0.17177813
32	0x3e844f73	0.25841865
33	0x3ef90af9	0.48641184
34	0x3eaf7fba	0.34277135
35	0xbe94a9a1	-0.29035667
36	0x3e127694	0.14303046
37	0x3e96fd1b	0.2948998
38	0xbd3cfd1d	-0.046139825
39	0x3e8fd63b	0.28093132
40	0xbf03bae1	-0.5145703
41	0x3ee3e7d2	0.44512802
42	0x3e10c84e	0.1413891
43	0x3ebc2b4a	0.36751777
44	0x3efee025	0.49780384
45	0xbe0dfd2d	-0.1386611
46	0xbe815dcd	-0.25266877
47	0xbeb64c2c	-0.3560499
48	0x3e87bc48	0.26510835
49	0x3de41dab	0.11138471
50	0x3efcb4b9	0.4935663
51	0x3d7f47a8	0.062324196
52	0x3e5cc6e7	0.2156025
53	0x3eb125a8	0.34599042
54	0xbe6c9441	-0.2310343
55	0x3ddc249d	0.10749171
56	0xbebbd604	-0.36686718
57	0x3e9af081	0.30261615
58	0x3e9e5f66	0.30932158
59	0xbe880466	-0.26565856
60	0x3d1be488	0.03805974
61	0xbe0528ff	-0.1300392
62	0xbeae2b15	-0.34017244
63	0x3d3eae35	0.046552856
64	0xbdb4e9d5	-0.088336624
65	0x3ca9677a	0.020679224
66	0x3eb6b340	0.35683632
67	0x3dd9a99a	0.10628052
68	0x3c76816c	0.015045505
69	0x3e89ef8f	0.2694058
70	0x3e5129c6	0.20426092
71	0x3e9015b6	0.28141564
72	0x3e304b63	0.17216258
73	0x3e9822c7	0.29714033
74	0xbe88bb52	-0.26705414
75	0xbeaeb76a	-0.3412431
76	0x3e7e13a6	0.24812183
77	0xbda316a3	-0.07963302
78	0x3ec4b29d	0.3841752
79	0x3e739029	0.23785461
80	0xbed1be87	-0.40965673
81	0xbecef255	-0.4041926
82	0x3eff692a	0.4988492
83	0x3f00e7f7	0.5035395
84	0xbdfcd41e	-0.12345146
85	0x3dc1e497	0.09467428
86	0x3ed88fae	0.4229712
87	0x3e9f4b8b	0.31112322
88	0xbe829c0e	-0.25509685
89	0xbec0ee51	-0.3768182
90	0xbd10c573	-0.035344552
91	0xbe273630	-0.16329265
92	0x3e0fa545	0.14027889
93	0xbd2d0261	-0.042238597
94	0x3cbe6419	0.02324109
95	0x3e83c4d4	0.25736105
96	0xbe940c51	-0.28915647
97	0xbf0e8ce4	-0.5568373
98	0x3dc82012	0.09771742
99	0x3d52bf97	0.051452246
100	0xbe87543e	-0.2643146
101	0xbeb13cb1	-0.34616616
102	0xbe617e96	-0.22020945
103	0xbec124e1	-0.3772345
104	0x3e84fe99	0.25975493
105	0x3eb7dfd2	0.3591295
106	0x3dffe12d	0.12494121
107	0xbf0113cc	-0.5042083
108	0x3ef8d7d9	0.4860218
109	0xbe4ee960	-0.20206213
110	0xbcbe7829	-0.023250656
111	0x3e509276	0.2036837
112	0xbeb8b3da	-0.36074716
113	0xbe91a8a4	-0.28448975
114	0x3e16060b	0.14650743
115	0xbee3a11a	-0.44458848
116	0x3c9d66bb	0.019214025
117	0x3ef76df3	0.48326072
118	0x3e3a9b7d	0.18223377
119	0x3ea46979	0.3211172
120	0x3efbf4cd	0.49210206
121	0xbece3e95	-0.4028212
122	0x3ed92972	0.42414433
123	0xbe338d50	-0.17534375
124	0x3ee88949	0.4541724
125	0xbe822604	-0.2541963
126	0x3d88dc37	0.06682628
127	0x3d63be6d	0.055601526

weight f4 [128, 128]
0	0x3dbf374c	0.09336719
1	0xbc24bb0a	-0.010054359
2	0xbce2b1fd	-0.027672762
3	0xbd30589e	-0.043053262
4	0xbdac88a6	-0.08424501
5	0xbd83814b	-0.06421145
6	0xba05f7b9	-0.0005110461
7	0x3d682bdd	0.056682456
8	0x3d45c898	0.048287004
9	0xbd81721e	-0.06320594
10	0x3d3632ab	0.044481914
11	0x3def96ff	0.11698722
12	0x3e27b568	0.16377795
13	0x3d95cd6b	0.07314571
14	0x3ca1720f	0.019707708
15	0xbe1759e3	-0.14780383
16	0x3d22efba	0.039779402
17	0xbb6c1878	-0.0036025327
18	0xbc5a7e9b	-0.013335849
19	0x3da7d813	0.0819551
20	0xbb0c27a0	-0.0021385923
21	0xbdae26fc	-0.085035294
22	0xbc25f120	-0.010128289
23	0x3ccd7dc8	0.025084391
24	0x3dc9d42f	0.09854924
25	0x3cc8cb7a	0.024511088
26	0xbcff4ac2	-0.031163577
27	0xbd0ba359	-0.034091327
28	0x3e1cf11d	0.15326352
29	0xbc935e6b	-0.017989358
30	0xbd5ef035	-0.054428298
31	0x3d90c9d0	0.07069743
32	0x3b67b3b5	0.0035354916
33	0x3c09e565	0.008416508
34	0xbe038de4	-0.12847096
35	0xbdddfee0	-0.10839629
36	0xbb9a3340	-0.0047058165
37	0x3db4661f	0.088085406
38	0x3df270a1	0.118378885
39	0xbd341092	-0.043961115
40	0xbda393c8	-0.079871714
41	0x3d360e31	0.044447128
42	0xbe3680e8	-0.17822611
43	0x3d048a93	0.032358717
44	0xbd38dc71	-0.045132104
45	0xbd778610	-0.060430586
46	0x3d8cf113	0.06881919
47	0x3da463d0	0.0802685
48	0x3d8dfda0	0.06933141
49	0xbb2e918c	-0.0026637046
50	0x3d112e83	0.035444748
51	0xbb9ae4ea	-0.0047269957
52	0x3d44976b	0.047995966
53	0x3b2d0aae	0.002640407
54	0x3c4f6c8d	0.012660158
55	0xbd0fce2c	-0.03510873
56	0xbdc355c6	-0.09537844
57	0x3bdda5e8	0.0067641623
58	0x3d1a3678	0.0376496
59	0x3d6118b3	0.054955196
60	0xbd37432f	-0.044741806
61	0xbd1c7ada	-0.038203098
62	0xbc967ed4	-0.018371023
63	0x3dac681d	0.084182955
64	0xbc831a34	-0.016003706
65	0x3dbd3e95	0.09240452
66	0x3dc8a243	0.09796574
67	0x3e256b90	0.16154313
68	0xbc2b6fca	-0.010463664
69	0xbbe6661a	-0.0070312144
70	0x3dd13810	0.10215771
71	0x3b13c101	0.002254546
72	0x3da51e5c	0.08062431
73	0xbe4669a7	-0.1937624
74	0xbc8d5628	-0.017252997
75	0xbdd447c4	-0.10365251
76	0xbce3edce	-0.027823355
77	0xbc6682b1	-0.014069245
78	0xb91fe354	-0.00015248108
79	0xbc768095	-0.015045305
80	0x3c16aae0	0.009196013
81	0xbd73766e	-0.059439115
82	0x3e24d2b7	0.16096006
83	0x3df28cdf	0.11843275
84	0xbd3ecfad	-0.046584774
85	0xbd21030d	-0.03930955
86	0x3d069c08	0.032863647
87	0xbccb897c	-0.024845831
88	0xbd72d424	-0.059284344
89	0x3ca6a423	0.020341938
90	0x3d8fd82e	0.07023655
91	0xbb404b4d	-0.0029341758
92	0xbd869ce5	-0.06572894
93	0xbd77e76d	-0.06052344
94	0x3d465a98	0.04842624
95	0xbdae8bbf	-0.08522748
96	0x3dbe1a96	0.092824146
97	0xbd203279	-0.039110634
98	0x3dce3873	0.100693606
99	0xbc5fff97	-0.013671777
100	0xbcc596b8	-0.02411972
101	0x3cb2b25b	0.021813562
102	0xbcf4a26c	-0.029862605
103	0x3d884bdd	0.06655095
104	0x3de6ba5d	0.11266015
105	0x3dee07e6	0.116226
106	0x3dcd12b6	0.100133345
107	0x3ca638a4	0.02029068
108	0x3db14668	0.08656007
109	0x3d24f78b	0.040275138
110	0x3e05e1f0	0.1307447
111	0xbdc04494	-0.0938808
112	0x3b25cb4c	0.0025298176
113	0x3beda57e	0.007252394
114	0x3dc91fb8	0.09820503
115	0xbc6b2051	-0.014350967
116	0x3c8e7c53	0.017393267
117	0xbc33c21f	-0.010971575
118	0x3d10b051	0.0353244
119	0x3d93ffa3	0.07226493
120	0x3dcbb705	0.099470176
121	0xbd1a3c67	-0.03765526
122	0x3dc6e080	0.09710789
123	0x3d2b0997	0.041757192
124	0x3dc2ed7d	0.095179535
125	0xbc080357	-0.0083015775
126	0x3dcbb5b7	0.09946769
127	0x3dc5e40d	0.09662638
128	0xbc7400c8	-0.014892764
129	0xbe0dcaf5	-0.13846953
130	0x3e31e06e	0.1737077
131	0x3dde1dee	0.108455524
132	0xbc9f2f27	-0.019431664
133	0xbdd60b1a	-0.10451336
134	0xbd928eb6	-0.07156126
135	0xbbf197c1	-0.007372827
136	0x3d868aaf	0.065694205
137	0x3d8f79eb	0.07005676
138	0xbdc25f45	-0.094908275
139	0xbd8426cc	-0.064527124
140	0xbdcf6478	-0.10126585
141	0x3c85c980	0.016331434
142	0xbcad6de7	-0.02117057
143	0x3e20d9a8	0.1570803
144	0xbca38ba8	-0.019964054
145	0x3de91da0	0.11382604
146	0x3d9fb472	0.07798089
147	0xbce5235c	-0.027970962
148	0xbd22e5b6	-0.03976985
149	0xbbe6cf88	-0.0070437826
150	0xbdb7a29c	-0.08966562
151	0xbc909c24	-0.017652579
152	0x3c26ce26	0.010180986
153	0x3b9e5fba	0.004833189
154	0xbcb5b211	-0.022179635
155	0x3da493d0	0.080360055
156	0x3d83326f	0.06406104
157	0x3dadc282	0.08484365
158	0x3da26027	0.07928496
159	0xbb85e64c	-0.0040862914
160	0xbd5787fb	-0.052619915
161	0xbcb29542	-0.021799687
162	0x3bfcfce9	0.007720579
163	0x3db4302a	0.08798249
164	0x3bb580f4	0.005539054
165	0x3d2b1855	0.04177125
166	0xbd8c8782	-0.068617836
167	0x3cdd8eed	0.027045691
168	0x3bf44daf	0.0074555497
169	0x3da085b6	0.07838003
170	0x3dc0b385	0.09409241
171	0x3ba1bce2	0.0049358467
172	0xbbad9201	-0.005296946
173	0xbcf4677f	-0.029834507
174	0x3db83bc5	0.08995775
175	0x3d7ede3b	0.062223654
176	0xbcdca821	-0.026935639
177	0x3d6fe499	0.058567617
178	0xbcdd04fd	-0.026979918
179	0x3c8b792a	0.017025549
180	0x3dbc59a3	0.09196784
181	0x3d83fd66	0.06444816
182	0x3cbcdd0c	0.023054622
183	0x3d6da5d6	0.05801948
184	0x3d45c4c1	0.048283342
185	0x3d8eb177	0.069674425
186	0xbd5f7cb6	-0.054562293
187	0xbe019c1a	-0.12657204
188	0xbc44a1de	-0.012001483
189	0x3ca1f4ae	0.019769993
190	0xbd12fd45	-0.035886068
191	0x3cc5265d	0.024066145
192	0x3dbdb6b3	0.09263363
193	0x3c46bb7b	0.01212966
194	0xbe1e75cf	-0.15474628
195	0xbe0431d8	-0.12909639
196	0x3d1ac358	0.03778395
197	0xbd83f30f	-0.06442844
198	0xbe1c2e09	-0.15251936
199	0x3d40a24e	0.047029786
200	0xbd4d2800	-0.050086975
201	0x3e2019c4	0.15634829
202	0xbd0afb8e	-0.033931307
203	0x3d18ed2b	0.037335556
204	0xbd2545ac	-0.040349647
205	0xbdaaae1f	-0.08333992
206	0x3d781104	0.060563102
207	0x3dabff5c	0.08398315
208	0x3dadf437	0.08493846
209	0x3d9237f4	0.071395785
210	0xbd8710ca	-0.06594999
211	0xbcfa638d	-0.030565048
212	0xbb824286	-0.0039752154
213	0x3e17a7dc	0.14810127
214	0xbd211f3f	-0.03933644
215	0x3da7a2fc	0.08185384
216	0xbaa290ad	-0.0012402736
217	0x3d7dee2b	0.061994713
218	0xbda7fbd7	-0.082023315
219	0xbb7046f0	-0.0036663376
220	0x3ccfffa8	0.025390461
221	0x3b927102	0.004469038
222	0x3d72514f	0.059159573
223	0x3e0c3e10	0.1369555
224	0xbdc225b5	-0.09479848
225	0xbc0bcfe4	-0.008533452
226	0xbe2b1506	-0.16707239
227	0x3ca1221f	0.01966959
228	0x3d9f6021	0.07782007
229	0x3d92cd93	0.071681164
230	0xbd5a72cd	-0.05333214
231	0xbd52cbf0	-0.05146402
232	0xbd573b3b	-0.05254672
233	0xbdd0a869	-0.10188372
234	0xbd9088cc	-0.07057342
235	0xbd803d00	-0.06261635
236	0xbca85743	-0.020549422
237	0xbe248184	-0.16065031
238	0xbd765f3f	-0.060149428
239	0x3dd4b8a0	0.10386777
240	0xbce37406	-0.027765285
241	0xbd6b538a	-0.057452716
242	0xbd4d9dfc	-0.050199494
243	0xbd91aec6	-0.071134135
244	0xbd6bac6e	-0.05753749
245	0x3d8b808f	0.0681163
246	0x3d2e4132	0.042542644
247	0x3c72de74	0.014823545
248	0xbd5edaf4	-0.05440803
249	0xbd9509b3	-0.072772406
250	0xbdaa20e2	-0.08307053
251	0x3d9146b9	0.070935674
252	0x3cf00c52	0.02930275
253	0x3d85017b	0.06494423
254	0x3d8c1070	0.06839073
255	0xbd109451	-0.035297696

bias f4 [128]
0	0x3d93fdee	0.072261676
1	0xba8ff031	-0.0010981617
2	0x3d56a8b0	0.052406967
3	0x3d9d7d7a	0.076899484
4	0xbd804d71	-0.06264771
5	0xbcac4d17	-0.021032853
6	0xbbaef673	-0.0053394376
7	0x3c9e3a48	0.0193149
8	0x3ce0a364	0.02742166
9	0x3d4a6c80	0.04941988
10	0xbd8511b9	-0.06497521
11	0xbbaceee5	-0.005277502
12	0xbc57ac91	-0.013163702
13	0xbb719417	-0.003686195
14	0x3da41e81	0.08013631
15	0xbc79dffd	-0.015251157
16	0x3d1c9c24	0.038234845
17	0xbda3a21f	-0.079899065
18	0xbd3752aa	-0.04475657
19	0xbd9abccd	-0.07555542
20	0x3d8d6cf9	0.069055505
21	0x3bbcfb41	0.0057672565
22	0x3dafe984	0.085894614
23	0xbd4c3870	-0.04985851
24	0xbb9eb0ac	-0.0048428383
25	0x3d3207b9	0.043464396
26	0x3d289abd	0.041163195
27	0x3d7d09a6	0.06177678
28	0x3d6134ff	0.05498218
29	0x3cfbbb3f	0.030728934
30	0xbd8fdcfb	-0.070245706
31	0x3d44680a	0.047950782
32	0xbca8a1b8	-0.020584926
33	0x3cc17b6d	0.023618424
34	0xbd8cd6d2	-0.06876911
35	0x3d0e5565	0.034749407
36	0xbdeaf5ec	-0.11472687
37	0x3cf08e7f	0.029364822
38	0x3cd3e105	0.025864134
39	0xbda4ebbe	-0.08052777
40	0xbd89e0b3	-0.06732311
41	0x3d0e4868	0.03473702
42	0x3d247c60	0.040157676
43	0x3d3653e2	0.04451359
44	0xbdb21283	-0.08694937
45	0x3d13b114	0.036057547
46	0xbc2f3057	-0.010692677
47	0xbca4f599	-0.020136641
48	0x3da5ab91	0.08089364
49	0xbdc19e75	-0.094540514
50	0x3db1b1cf	0.086764924
51	0x3dbac24d	0.09119091
52	0x3d7c1e45	0.061552305
53	0xbc8e90fa	-0.017403115
54	0x3b196931	0.0023408646
55	0x3c024c72	0.007952796
56	0x3d8030e7	0.062593274
57	0xbd680306	-0.05664351
58	0x3d4cd742	0.050009973
59	0x3d8626c7	0.06550365
60	0x3c4a975d	0.012365189
61	0x3db48fd3	0.08816495
62	0xbd7cfab8	-0.06176254
63	0x3d4caa34	0.049967006
64	0x3d8e0e8a	0.06936367
65	0xbdb950c5	-0.09048609
66	0x3afa6b02	0.0019105377
67	0xbce75c74	-0.028242327
68	0xbcab1eb3	-0.020888662
69	0x3dde3341	0.1084962
70	0xbb26d059	-0.0025453775
71	0xbd5588f9	-0.05213258
72	0x3c805cb4	0.015669204
73	0xbd28a0e9	-0.04116908
74	0xbd950020	-0.072754145
75	0xbd0dd647	-0.03462818
76	0xbb326cb3	-0.0027225434
77	0xbc1160b3	-0.008873153
78	0x3dd25fd0	0.10272181
79	0xbd015b41	-0.031581167
80	0xbdbc3f26	-0.09191732
81	0xbda42bef	-0.08016192
82	0x3db82a41	0.08992434
83	0x3d9b0533	0.07569351
84	0x3d767be6	0.060176753
85	0x3da13b1f	0.078726046
86	0x3dce33fb	0.10068508
87	0xba54ccd4	-0.000811768
88	0x3dbd3032	0.09237708
89	0xbcf0b05a	-0.029380966
90	0x3d6ea5f5	0.058263738
91	0x3a19e681	0.00058708346
92	0xba7084c4	-0.0009175057
93	0xbd570d76	-0.05250307
94	0x3d912e99	0.07088966
95	0x3dd6751a	0.10471554
96	0xbd35c441	-0.044376615
97	0xbd8f2efc	-0.069913834
98	0x3c3bfc91	0.011473791
99	0xbd567c0c	-0.052364394
100	0xbd4932d8	-0.049120754
101	0x3cce4df7	0.02518366
102	0x3daf112d	0.08548198
103	0x3d430d97	0.047620382
104	0x3da001b9	0.078128286
105	0xbce3a1d3	-0.027787125
106	0xbda139c3	-0.07872345
107	0x3b42827e	0.002967983
108	0x3cea2d1a	0.02858596
109	0xbde4b083	-0.111664794
110	0x3cbbd1c6	0.022927176
111	0xbd42446a	-0.047428526
112	0x3d6ee6cd	0.058325578
113	0x3cbd854f	0.023134856
114	0x3da22f07	0.07919126
115	0x3dfc4ee0	0.12319732
116	0x3af278f1	0.0018499178
117	0x3de752dd	0.11295102
118	0xbdb7667c	-0.08955094
119	0x3d95c46b	0.073128544
120	0x3d8798e1	0.06620956
121	0xbd24e957	-0.040261593
122	0x3dc85b9b	0.09783097
123	0x393726c4	0.00017466681
124	0x3dc297c9	0.09501607
125	0x3d22b196	0.03972014
126	0x3bf15469	0.007364799
127	0xbdd2b10a	-0.10287674

weight f4 [2, 128]
0	0xbe15f4f8	-0.1464423
1	0x3de06377	0.109564714
2	0x3c0087c0	0.007844865
3	0x3c25d6e6	0.010122037
4	0xbc9122d3	-0.0177168
5	0x3d708aea	0.05872623
6	0x3de0dfcc	0.10980186
7	0xbcca5cf6	-0.02470253
8	0x3d19f483	0.0375867
9	0x3bc62b61	0.0060476516
10	0x3cc1b808	0.023647323
11	0xbd848f11	-0.064726
12	0xbd15d1de	-0.036577098
13	0xbcdc643f	-0.02690327
14	0x3e1417ef	0.14462255
15	0xbc8ed192	-0.017433915
16	0x3d912886	0.07087807
17	0xbdb37fec	-0.087646335
18	0xbc19eef1	-0.009395347
19	0x3c527b82	0.012846829
20	0xbd30e0b5	-0.043183047
21	0x3dadf6df	0.084943525
22	0xbcd24ec9	-0.025672333
23	0x3cb183c1	0.02166927
24	0x3d98b16a	0.07455714
25	0xbe113468	-0.14180148
26	0x3d5b2bf4	0.053508714
27	0x3d5656a7	0.052328732
28	0xbdeee0ec	-0.11663994
29	0x3d7cd04f	0.061722096
30	0x3d540905	0.051766414
31	0x3d0296e1	0.03188217
32	0x3bd7c63e	0.0065849116
33	0x3d3c4f02	0.045973785
34	0x3c5135e0	0.012769192
35	0xbd803243	-0.06259587
36	0xbcd47643	-0.025935298
37	0x3de8daf2	0.113698855
38	0x3c86eb29	0.016469555
39	0x3d263be4	0.04058446
40	0x3d688223	0.056764733
41	0x3c9907c2	0.018680457
42	0xbd05db92	-0.0326801
43	0xbdfd059c	-0.123545855
44	0xbd06a345	-0.03287055
45	0x3cf70e7d	0.030158276
46	0xbe1b47fa	-0.15164176
47	0x3ce3bb94	0.027799405
48	0xbe1ec6fe	-0.15505597
49	0xbd1942c4	-0.03741719
50	0xbe052b1a	-0.13004723
51	0x3e47faa7	0.1952921
52	0x3dce3944	0.10069516
53	0x3cf85c71	0.030317517
54	0x3da5f860	0.081040144
55	0x3d8645ea	0.06556304
56	0x3d9b3229	0.07577927
57	0xbc27bb61	-0.010237546
58	0xbd8f0d7b	-0.06984993
59	0xbcddb298	-0.0270627
60	0x3de49b0c	0.11162385
61	0x3d3caa1a	0.04606066
62	0x3b4b72ae	0.0031043696
63	0xbd3cb11e	-0.04606735
64	0xbd6f3abe	-0.05840563
65	0xbcce305a	-0.02516954
66	0x3cfb33c8	0.03066434
67	0xbce49b91	-0.027906211
68	0x3d02170d	0.031760264
69	0x3e441b98	0.19151151
70	0xbcd800f3	-0.02636764
71	0x3df53933	0.119738005
72	0xbcd3e28d	-0.025864864
73	0xbd84b418	-0.06479663
74	0x3c82c190	0.015961438
75	0x3d84c7ad	0.06483398
76	0xbd4ac722	-0.049506314
77	0xbd39a874	-0.045326665
78	0x3d864278	0.06555647
79	0x3e0199d8	0.12656343
80	0xbd1d3fbe	-0.038390867
81	0x3d198f31	0.037490074
82	0xbcd67e43	-0.026183253
83	0x3dda64ff	0.10663795
84	0xbb838e39	-0.004014757
85	0x3c9dfc4c	0.019285344
86	0x3d9372f4	0.0719966
87	0xbd8da0f9	-0.06915469
88	0x3e07640f	0.13221763
89	0x3cce0f96	0.025153916
90	0x3cb4ebcc	0.022085093
91	0xbd2a56ee	-0.04158681
92	0xbe2339a7	-0.15939961
93	0xbd41c748	-0.04730919
94	0x3d2624b3	0.040562343
95	0xbd71c831	-0.059028808
96	0xbc808065	-0.015686223
97	0x3da5d1dc	0.08096668
98	0xbc66ed1e	-0.014094619
99	0x3c9643c2	0.018342856
100	0xbce4a6af	-0.027911512
101	0xbca11cb0	-0.019667
102	0x3de83a8d	0.11339293
103	0x3de5ecba	0.11226793
104	0x3dcfcd58	0.10146588
105	0xbdcbb7e1	-0.099471815
106	0x3d8549de	0.0650823
107	0xbb67a105	-0.0035343778
108	0xbdb08ff5	-0.086212076
109	0xbd0cb841	-0.034355406
110	0x3d7c192e	0.06154745
111	0x3c687d9a	0.014190102
112	0xbe33344a	-0.17500415
113	0xbdc279a3	-0.094958566
114	0xbe2d28b3	-0.16910057
115	0xbddb9fe6	-0.107238576
116	0x3c8575b2	0.016291473
117	0x3e500f5f	0.20318364
118	0x3d89c971	0.06727875
119	0xbd4901be	-0.049073927
120	0xbdfad050	-0.12246764
121	0xbc016cfe	-0.007899521
122	0xbdaf2578	-0.085520685
123	0x3dbd88c5	0.09254602
124	0x3dde1025	0.10842923
125	0xbd8108b5	-0.06300489
126	0x3dac08f5	0.08400146
127	0x3da654dc	0.081216544
128	0x3da660a1	0.08123899
129	0xbe448c38	-0.19194114
130	0xbc28e97b	-0.010309572
131	0xbe134055	-0.1438001
132	0xbca5fcd0	-0.020262152
133	0xbd9079d7	-0.07054489
134	0xbd1db684	-0.03850414
135	0x3beefe6a	0.007293512
136	0x3cdd1bfe	0.026990887
137	0xbc9c87ef	-0.019107787
138	0xbdbc2d8b	-0.09188374
139	0xbd8182fd	-0.06323812
140	0xbb8e8224	-0.00434901
141	0x3b8efac3	0.004363389
142	0xbdfe286a	-0.12410052
143	0x3d7caefb	0.061690312
144	0xbc0ea41b	-0.008706118
145	0x3dd03f73	0.10168352
146	0xbd16376d	-0.036673952
147	0x3bc5f452	0.006041088
148	0x3e0194fc	0.1265449
149	0x3a36f7ca	0.00069796725
150	0xbdb7ff98	-0.089842975
151	0xbdc30d03	-0.09523966
152	0x3d8db3a2	0.06919028
153	0x3de3cecf	0.1112343
154	0xbda48eac	-0.08035025
155	0xbdeb3645	-0.114849605
156	0x3e0ad9e8	0.13559687
157	0xbdaf08aa	-0.085465744
158	0xbc9d10ae	-0.019172993
159	0xbc8c8a95	-0.017155925
160	0xbb7e43d4	-0.0038797753
161	0xbd8b6da9	-0.068080254
162	0x3db8abc2	0.09017135
163	0x3d9ce935	0.07661668
164	0x3d016b97	0.031596746
165	0xbda18603	-0.07886889
166	0x3d9a8703	0.07545283
167	0x3d72d85d	0.05928837
168	0x3bd9cb8c	0.006646579
169	0xbdfd435b	-0.12366363
170	0x3d55bf5b	0.052184444
171	0x3da2d046	0.07949881
172	0x3d803b29	0.06261284
173	0xbe2325b0	-0.15932345
174	0x3e118e21	0.14214374
175	0x3d768e90	0.060194552
176	0x3d921a41	0.07133914
177	0xbcebef3f	-0.028800605
178	0x3cd42541	0.02589667
179	0xbe4e007f	-0.20117377
180	0xbe00aea3	-0.12566619
181	0x3d7786b9	0.060431216
182	0xbc7928eb	-0.0152075095
183	0x3d869756	0.06571834
184	0xbd56ad33	-0.05241127
185	0x3d13ee1e	0.036115758
186	0x3c96f420	0.018426955
187	0x3da5866a	0.08082278
188	0xbd67862d	-0.056524444
189	0xbe09d48d	-0.13459988
190	0xbe10e427	-0.14149533
191	0x3e16caf4	0.14725858
192	0x3e17bd1b	0.14818232
193	0xbca5335b	-0.02016609
194	0xbc841aa4	-0.016125984
195	0x3b5346d4	0.0032238262
196	0xbd554e1b	-0.05207644
197	0xbd3044f8	-0.043034524
198	0xbcb887b0	-0.022525638
199	0x3a69881e	0.00089085277
200	0xbd04e185	-0.032441635
201	0x3d9935dc	0.07480976
202	0xbd673127	-0.05644336
203	0x3b5055c4	0.0031789402
204	0xbd600bcc	-0.05469875
205	0x3d824ad6	0.0636193
206	0xbde0a54f	-0.1096903
207	0x3d1e57c5	0.038657922
208	0x3d8cc81e	0.06874107
209	0xbda089d7	-0.07838791
210	0x3e224c0c	0.15849322
211	0xbd8e5d05	-0.06951336
212	0x3d85e232	0.06537284
213	0xbd4c309d	-0.04985105
214	0xbe0c9db8	-0.1373204
215	0xbc9a9494	-0.018869676
216	0xbdc1c014	-0.09460464
217	0xbdaf7fbc	-0.08569285
218	0xbdf82eea	-0.12118323
219	0x3db90208	0.090335906
220	0x3df5def0	0.120054126
221	0x3c83986b	0.01606389
222	0xbe054f8c	-0.13018626
223	0x3e3899c7	0.18027411
224	0xbc057684	-0.008145932
225	0x3c2bdb71	0.010489331
226	0x3e2a09e0	0.1660533
227	0x3c96afd6	0.018394392
228	0xbda36343	-0.07977917
229	0x3cf13deb	0.02944847
230	0xbe0b0ed4	-0.13579875
231	0xbe365cbe	-0.17808816
232	0xbcd8b37f	-0.026452778
233	0x3df19f2a	0.11797936
234	0xbd9f85a9	-0.077891655
235	0xbda2ef57	-0.07955807
236	0x3d48e694	0.04904802
237	0x3a973ebf	0.0011539086
238	0x3d64a6ef	0.055823263
239	0xbd8e6a88	-0.06953913
240	0x3dc3f59c	0.09568331
241	0x3de49c01	0.11162568
242	0x3debafba	0.115081266
243	0x3dfb6805	0.122756995
244	0x3c4c5dab	0.012473504
245	0xbd1ed3d0	-0.03877622
246	0x3c9d05c2	0.019167785
247	0xbd4cfcc9	-0.050045762
248	0x3dff4a3f	0.12465333
249	0x3d6391f5	0.055559117
250	0x3e22272c	0.15835255
251	0xbdd9160c	-0.10599908
252	0xbe1ae069	-0.15124668
253	0x3d9227ec	0.07136521
254	0xbc5653fb	-0.013081546
255	0x3d3d20b5	0.04617377

bias f4 [2]
0	0xbc7f00f2	-0.01556419
1	0xbdb3971f	-0.087690584
