to_students/saved_models/actor_3.pt (torch, 73032 bytes, 6 tensors)

weight f4 [128, 4]
-0.38612252 0.43685445 0.561299 -0.22435603 0.3241229 -0.02437471 -0.46383286 0.31047165
-0.27115437 0.226816 0.30778658 -0.32380086 -0.055968575 -0.1933454 0.7248002 -0.0061412845
-0.39117497 0.4150049 -0.34058616 0.39069274 -0.024205368 -0.49020746 -0.26771265 -0.34634194
0.1137254 0.28675163 -0.3188735 -0.5089348 -0.24833089 -0.30285782 0.2400008 0.1764252
-0.053752955 -0.26050103 -0.505004 0.30550882 0.28055587 0.21392238 0.0085420655 0.12601829
0.13196647 -0.19042955 -0.5171745 -0.26257044 0.23257615 -0.52853775 -0.00083652884 -0.5612714
0.4409089 0.044109322 0.095545225 0.58751035 -0.113016866 -0.22286303 0.22770156 0.45609927
-0.19530535 0.11885101 0.6999213 0.533237 0.30260545 0.20169744 -0.49070325 -0.031985667
-0.008518519 -0.17651337 -0.39325795 -0.5584178 -0.015952593 0.015801022 0.15025674 -0.30947348
0.15641803 -0.4388266 -0.07153283 -0.35556045 -0.18277398 -0.4489614 0.16638899 0.22693627
0.094905175 -0.065448806 0.39609903 -0.12446143 0.37240463 0.03162832 -0.45482385 -0.21651858
-0.20361356 0.4529333 0.3352618 -0.2096325 -0.10240274 -0.096224226 -0.58731014 0.114831544
0.40439755 0.40706593 0.009353135 -0.37233195 -0.26425004 0.08500274 0.17042129 -0.307674
-0.006659081 0.03863729 0.84945995 0.37755835 0.41172618 0.39044526 0.072932206 0.42126802
-0.41850665 -0.21388042 0.7128301 0.4121788 -0.32787812 -0.006229046 -0.12856275 -0.3737135
-0.020577423 0.20588583 -0.6844996 -0.2063435 -0.34494966 0.042053282 0.15531096 -0.33222026
0.2837758 0.058575496 -0.3257398 0.6152027 0.3672261 -0.30458322 -0.006917567 0.06719027
0.15506965 -0.37169042 -0.8603423 -0.22295009 -0.1930405 -0.49358034 0.07218253 -0.44161385
0.10284345 0.25634 0.4288055 0.5643463 -0.464444 -0.26847118 0.7577113 0.29009703
0.25433075 -0.37707362 -0.6607951 -0.13072175 -0.115391746 0.44911426 0.31735104 0.026688442
0.06617168 0.17018938 0.3004594 0.31066287 -0.0016004243 -0.44238654 -0.7930985 -0.28819868
0.20990469 -0.391404 -0.0074985866 -0.009923518 0.29893824 -0.45732418 -0.5595795 -0.5053201
-0.30035084 0.04765838 0.17421952 0.35002476 -0.08745401 0.13966897 0.3528316 0.104889385
-0.02387125 -0.05340979 0.24829082 -0.38386396 0.08870014 -0.17153282 -0.24193469 0.08043313
-0.11634507 0.006910816 0.3199729 -0.5007564 0.051634654 0.14331456 -0.46935096 0.39167792
0.3907436 -0.08000492 -0.11111263 0.38561684 -0.11523763 -0.37286332 -0.12261013 -0.16932178
0.3325704 0.3338336 -0.24204963 0.5582551 -0.16697444 -0.08041182 0.0009031924 0.38812095
-0.22128128 0.034698807 -0.08225585 -0.1026475 -0.0054579224 0.20336728 0.5428651 0.4733775
0.03091456 0.1746221 -0.55426997 -0.057720095 0.29659256 -0.02565132 0.25591198 0.48526248
0.29876173 0.39239508 0.1467084 0.08045364 -0.013670453 -0.2794941 0.7643362 0.27180132
0.3142422 -0.124118745 -0.27120754 -0.06188874 -0.15562761 -0.24116452 0.71752644 0.0602736
0.35397702 0.033430733 -0.57446533 -0.27993459 0.00546001 0.32546905 0.2832318 -0.02556447
00000000: dab1 c5be 63ab df3e 4bb1 0f3f 96bd 65be
00000010: 70f3 a53e 79ad c7bc 807b edbe 24f6 9e3e
00000020: bfd4 8abe 7442 683e 3496 9d3e 3ac9 a5be
00000030: 4e3f 65bd 56fc 45be 828c 393f d43c c9bb
00000040: 1648 c8be 867b d43e 4f61 aebe e108 c83e
00000050: 564a c6bc 79fc fabe a211 89be bb53 b1be
00000060: dde8 e83d 1cd1 923e 6343 a3be 8d49 02bf
00000070: 744a 7ebe 2e10 9bbe c5c2 753e cfa8 343e
00000080: 0f2c 5cbd 6460 85be f147 01bf a76b 9c3e
00000090: 05a5 8f3e 780e 5b3e 05f4 0b3c f00a 013e
000000a0: 3822 073e f7ff 42be 8c65 04bf a26f 86be
000000b0: 7128 6e3e 404e 07bf 804a 5bba 7caf 0fbf
000000c0: d0be e13e faab 343d 37ad c33d 1467 163f
000000d0: 6375 e7bd 3536 64be 992a 693e d885 e93e
000000e0: 20fe 47be 2968 f33d 0b2e 333f 3882 083f
000000f0: 1aef 9a3e c689 4e3e 753d fbbe 6703 03bd
00000100: 4291 0bbc ecbf 34be 1b59 c9be 78f4 0ebf
00000110: 03af 82bc 2571 813c e7dc 193e 4f73 9ebe
00000120: 0c2c 203e e1ad e0be ce7f 92bd 050c b6be
00000130: 1a29 3bbe 45de e5be e061 2a3e fb61 683e
00000140: a55d c23d 060a 86bd 7ecd ca3e a2e5 febd
00000150: d2ab be3e b38c 013d acde e8be 0cb7 5dbe
00000160: 1380 50be e0e6 e73e 6fa7 ab3e e7a9 56be
00000170: 87b8 d1bd 3511 c5bd f559 16bf cd2c eb3d
00000180: 320d cf3e f26a d03e e43d 193c 4ba2 bebe
00000190: c84b 87be eb15 ae3d eb82 2e3e 7287 9dbe
000001a0: 6c34 dabb 2342 1e3d 3576 593f 544f c13e
000001b0: c6cd d23e 71e8 c73e 7b5d 953d 71b0 d73e
000001c0: 8146 d6be 7803 5bbe 097c 363f 1a09 d33e
000001d0: a4df a7be 061d ccbb f4a5 03be 6057 bfbe
000001e0: fc91 a8bc bcd3 523e 5e3b 2fbf b64b 53be
000001f0: 3e9d b0be 1040 2c3d d609 1f3e c618 aabe
00000200: 104b 913e dcec 6f3d 5ec7 a6be ed7d 1d3f
00000210: 0f05 bc3e 55f2 9bbe c2ac e2bb 0d9b 893d
00000220: 94ca 1e3e 354e bebe 653f 5cbf 074d 64be
00000230: 69ac 45be 90b6 fcbe 6fd4 933d 361b e2be
00000240: 969f d23d ff3e 833e 658c db3e 0079 103f
00000250: 9bcb edbe 0e75 89be 5ef9 413f 9987 943e
00000260: a437 823e cb0f c1be de29 29bf ecdb 05be
00000270: 8252 ecbd 4ef2 e53e d67b a23e b8a1 da3c
00000280: 0585 873d 2046 2e3e d1d5 993e 340f 9f3e
00000290: 54c5 d1ba 7d80 e2be 8108 4bbf c78e 93be
000002a0: 41f1 563e 1b66 c8be b4b6 f5bb 4096 22bc
000002b0: 6f0e 993e 6526 eabe 9a40 0fbf a85c 01bf
000002c0: 96c7 99be 6f35 433d 9a66 323e 7236 b33e
000002d0: 171b b3bd 6205 0f3e 58a6 b43e 3fd0 d63d
000002e0: a48d c3bc 39c4 5abd f33f 7e3e d189 c4be
000002f0: 6ba8 b53d 4da6 2fbe babd 77be 20ba a43d
00000300: 5346 eebd 2074 e23b 7dd3 a33e 9231 00bf
00000310: dc7e 533d 0dc1 123e c54e f0be 028a c83e
00000320: 8c0f c83e 9fd9 a3bd 058f e3bd 926f c53e
00000330: b501 ecbd f1e7 bebe 051b fbbd b062 2dbe
00000340: ab46 aa3e 3dec aa3e dcdb 77be cee9 0e3f
00000350: 59fb 2abe f4ae a4bd 37c4 6c3a cab7 c63e
00000360: 8f97 62be 5620 0e3d c175 a8bd da38 d2bd
00000370: 5fd8 b2bb 833f 503e 35f9 0a3f 895e f23e
00000380: 8840 fd3c 23d0 323e a3e4 0dbf e86b 6cbd
00000390: fbda 973e b822 d2bc e506 833e 5374 f83e
000003a0: 4cf7 983e 02e8 c83e ba3a 163e e1c4 a43d
000003b0: 09fa 5fbc da19 8fbe 8aab 433f 8b29 8b3e
000003c0: 5be4 a03e f831 febd b7db 8abe 0c7f 7dbd
000003d0: d85c 1fbe d5f3 76be d0af 373f 73e1 763d
000003e0: 7a3c b53e aaee 083d 2910 13bf 9653 8fbe
000003f0: e2e9 b23b e1a3 a63e c203 913e 946c d1bc

bias f4 [128]
0.2725386 -0.15169936 -0.49445263 0.13668372 -0.15599787 -0.37888217 0.015684562 0.16126612
-0.17451885 -0.43488836 0.31084228 0.18015587 0.45480576 0.310296 0.35383928 -0.19932415
0.18390183 -0.46777755 -0.05307866 -0.35337844 0.28275934 -0.38878673 0.009263399 -0.15585151
0.116082996 -0.23513973 0.26913843 0.40133366 0.46657807 0.057368726 0.22132276 -0.47118714
0.14890635 0.33078372 0.276216 -0.26443934 0.4362403 0.47914425 0.32661322 -0.4716786
-0.33503255 0.11509028 -0.07169533 0.23884873 -0.35149658 0.25499395 0.4121646 -0.45719635
-0.3024771 -0.2413986 0.036505535 -0.087005876 0.4577635 -0.3089406 -0.38336736 0.22886492
0.17645203 0.08595872 -0.26641783 0.18675312 -0.513567 0.03558654 0.10067721 0.3995459
-0.029052958 -0.49440682 -0.46754915 0.067227796 0.26181868 -0.3772254 -0.18443884 0.27358186
-0.20579816 -0.38620943 0.37524822 0.4435324 -0.23435822 -0.5431772 -0.14127278 0.10949705
-0.17087722 0.12866625 0.19368576 -0.046768095 0.26998055 -0.14696196 0.13865407 -0.24228436
0.37565818 -0.17720865 0.33270845 -0.16136426 0.03466449 0.38780805 -0.08616797 -0.16745217
0.37950724 0.07792653 0.15838864 -0.030873412 -0.4494523 0.006968822 -0.5153284 -0.17150323
-0.06652319 0.36550972 0.3488569 -0.03740417 0.43733254 0.28205442 -0.3024844 0.1634785
0.028925912 -0.4570044 0.22332616 0.19643098 -0.35075435 0.3336054 -0.12189041 -0.12562194
-0.25199875 -0.2753704 0.06139318 0.26705658 -0.12443607 0.40024468 -0.5456221 0.017923413
00000000: 2e8a 8b3e 1457 1bbe e528 fdbe d1f6 0b3e
00000010: e8bd 1fbe d8fc c1be e97c 803c f222 253e
00000020: 12b5 32be b0a9 debe b826 9f3e c87a 383e
00000030: 4ddc e83e 1edf 9e3e 6c2a b53e a11b 4cbe
00000040: c350 3c3e 8a80 efbe 0269 59bd 05ee b4be
00000050: d5c5 903e 0e0f c7be 83c5 173c 8a97 1fbe
00000060: ecbc ed3d 78c8 70be 83cc 893e 9b7b cd3e
00000070: 52e3 ee3e 78fb 6a3d 6fa2 623e 713f f1be
00000080: e87a 183e 7c5c a93e 2f6c 8d3e 9864 87be
00000090: e35a df3e 6552 f53e d939 a73e dc7f f1be
000000a0: 6389 abbe 74b4 eb3d 00d5 92bd c394 743e
000000b0: 5cf7 b3be 918e 823e 3d07 d33e a415 eabe
000000c0: 47de 9abe 3231 77be d486 153d 2330 b2bd
000000d0: fa5f ea3e 762d 9ebe ba48 c4be 915b 6a3e
000000e0: d7af 343e 200b b03d eb67 88be 363c 3f3e
000000f0: 2079 03bf 31c3 113d da2f ce3d 4891 cc3e
00000100: 7800 eebc e422 fdbe 9a62 efbe baae 893d
00000110: 190d 863e b023 c1be 89dd 3cbe ec12 8c3e
00000120: c1bc 52be 3ebd c5be 8920 c03e ae16 e33e
00000130: 9afb 6fbe a90d 0bbf d0a9 10be fd3f e03d
00000140: 70fa 2ebe 16c1 033e 8f55 463e e78f 3fbd
00000150: e43a 8a3e 327d 16be 55fb 0d3e 6419 78be
00000160: 4556 c03e 2f76 35be c358 aa3e ac3c 25be
00000170: 5afc 0d3d c78e c63e d578 b0bd 9578 2bbe
00000180: c64e c23e f297 9f3d a230 223e 3dea fcbc
00000190: 9d1e e6be b75a e43b 90ec 03bf 8b9e 2fbe
000001a0: 4f3d 88bd 1724 bb3e 5f9d b23e 1d35 19bd
000001b0: 0dea df3e 7069 903e 3cdf 9abe e866 273e
000001c0: 09f6 ec3c 7bfc e9be 9daf 643e 3425 493e
000001d0: 1396 b3be 54ce aa3e aea1 f9bd 0aa3 00be
000001e0: fb05 81be 59fd 8cbe 6a77 7b3d a4bb 883e
000001f0: 57d8 febd dfec cc3e e4ad 0bbf 1fd4 923c

weight f4 [128, 128]
0.05695398 0.0749283 -0.07161856 -0.034941398 -0.074965544 -0.014933292 -0.010297149 0.012749967
-0.036692176 0.07665381 -0.017871458 -0.0970102 -0.015844496 0.022289954 0.07358102 -0.021304665
-0.09640099 0.05038032 -0.005739326 0.033139233 -0.07580569 0.0036861843 -0.07783788 0.014101583
-0.037952997 -0.042178206 0.058299135 -0.05190026 0.06258903 -0.03999198 0.0075806505 -0.07632883
-0.038422927 0.0149156125 -0.05703644 0.0405451 0.017023942 0.0061670667 0.0156145105 -0.051845912
0.009944889 -0.08353568 -0.03480335 -0.03852578 -0.07163083 0.0387468 0.00389468 -0.0014355887
-0.056990262 0.02991116 -0.023849662 -0.08065674 -0.046997145 0.057236694 0.056043644 -0.037179742
-0.068905205 -0.040267143 -0.014371454 -0.041662127 -0.060090814 -0.08879897 -0.048488244 0.043296512
-0.077532046 -0.086259 0.05317524 -0.08924244 0.043580707 0.048498157 -0.05960372 0.02868128
0.08112324 0.064220816 -0.046771787 -0.07350809 0.051326316 0.00019248693 -0.023946607 -0.03412683
0.07733032 -0.011468876 0.004322983 -0.046796914 -0.10093962 0.023114838 -0.047431298 0.07804895
-0.011598912 0.010524512 0.0678076 0.043568406 -0.09010485 0.00612673 -0.02733161 -0.08711123
-0.03244315 0.039166596 0.040056147 0.076218575 -0.08531769 0.00083811994 0.019374326 -0.09047146
-0.074465 0.03940319 0.025755443 -0.0061165364 0.05417845 -0.060358047 -0.033552792 -0.02315889
-0.010710813 -0.02697032 0.014869729 -0.024575798 0.05213493 0.041253213 0.009614502 0.05680555
0.03907479 0.015606908 -0.012174018 -0.10138798 0.0391609 -0.033499286 -0.058613583 -0.025716348
0.07020832 -0.008034798 -0.02847419 -0.03480145 0.09775763 0.03744648 -0.052383617 0.0221661
0.03164221 -0.020441335 0.04179218 0.19067119 -0.036019456 0.054257654 -0.108605586 0.039232347
0.10324242 -0.05810734 0.19260052 -0.015822103 0.064125255 -0.011025669 0.013631312 0.021148976
0.08698819 0.050987344 -0.11018228 -0.015126552 -0.06319105 0.1647016 0.09405262 -0.01319972
-0.07818786 -0.039319053 0.14157946 0.07250656 -0.02667334 -0.036289148 0.05559799 -0.08730781
-0.009621772 0.15971689 -0.015084675 0.14607708 0.043656465 0.06573541 0.070438005 -0.012230237
0.12387377 0.10696893 0.04216172 0.1337653 -0.014330025 -0.014898883 0.001374244 -0.030193793
0.10102753 -0.048088547 0.007980644 0.008103393 -0.05612781 0.076055005 0.043673728 0.062232666
-0.06843242 -0.053484187 -0.0074535916 0.17710482 -0.04473718 0.04993026 -0.019378692 0.112797976
0.06188498 0.042397458 0.021743752 -0.09585187 -8.3807594e-05 0.0023047423 -0.0062202215 0.020089043
0.0335204 0.075511605 0.096900016 0.057645325 0.07341708 0.056166545 -0.018265937 -0.0035363052
0.09133091 0.052934267 -0.16630095 0.034640383 -0.009838235 -0.023955502 0.047714617 0.11649516
-0.027727267 0.0278429 0.05771766 0.037686173 -0.047393207 -0.01607927 -0.08748757 0.026033765
-0.015856357 -0.115958326 0.011954712 0.0847763 -0.07808732 0.046814267 -0.046437584 -0.00825762
-0.06184737 -0.073747516 0.043835364 -0.017255945 0.03825252 -0.03444357 0.02324775 -0.04798662
0.012077798 0.0279902 0.06146298 -0.10477543 0.012418962 0.035899498 0.007404092 0.06581692
00000000: 9448 693d 0274 993d c0ac 92bd b61e 0fbd
00000010: 8987 99bd c4aa 74bc 60b5 28bc 3de5 503c
00000020: 894a 16bd acfc 9c3d 2a67 92bc 49ad c6bd
00000030: 51cc 81bc 6c99 b63c a5b1 963d 1f87 aebc
00000040: e26d c5bd 985b 4e3d f510 bcbb 01bd 073d
00000050: 0340 9bbd e993 713b 7769 9fbd 530a 673c
00000060: 9a74 1bbd 0ec3 2cbd 13cb 6e3d 5e95 54bd
00000070: ad2e 803d a1ce 23bd 1b67 f83b 4a52 9cbd
00000080: 5c61 1dbd 9d60 743c 0b9f 69bd 9e12 263d
00000090: cb75 8b3c 1b15 ca3b 01d4 7f3c 615c 54bd
000000a0: e3ef 223c c114 abbd f58d 0ebd 35cd 1dbd
000000b0: 2fb3 92bd f7b4 1e3d e33d 7f3b 5d2a bcba
000000c0: 9f6e 69bd 4008 f53c 5e60 c3bc 5c2f a5bd
000000d0: 1480 40bd 0671 6a3d 058e 653d c949 18bd
000000e0: 2c1e 8dbd 29ef 24bd 3f76 6bbc e8a5 2abd
000000f0: c921 76bd 3cdc b5bd 9c9b 46bd af57 313d
00000100: 1fc9 9ebd 8fa8 b0bd 48ce 593d bec4 b6bd
00000110: af81 323d 01a6 463d 0823 74bd 01f5 ea3c
00000120: f123 a63d 3486 833d c693 3fbd 698b 96bd
00000130: 8b3b 523d 51d6 4939 ad2b c4bc 93c8 0bbd
00000140: 5c5f 9e3d f4e7 3bbc cfa7 8d3b 1fae 3fbd
00000150: 6eb9 cebd 545b bd3c 5247 42bd 21d8 9f3d
00000160: 5d09 3ebc 016f 2c3c b6de 8a3d c974 323d
00000170: e488 b8bd bcc2 c83b 8ae6 dfbc 5f67 b2bd
00000180: 1ce3 04bd 276d 203d ea11 243d 7c18 9c3d
00000190: 0bbb aebd 47b5 5b3a e8b6 9e3c 1a49 b9bd
000001a0: 1b81 98bd 3d65 213d 14fd d23c 3a6d c8bb
000001b0: 39ea 5d3d 003a 77bd a76e 09bd b6b7 bdbc
000001c0: 687c 2fbc dcf0 dcbc 2aa0 733c 2f53 c9bc
000001d0: 708b 553d 21f9 283d 2586 1d3c f0ac 683d
000001e0: e30c 203d 1eb4 7f3c 8875 47bc 80a4 cfbd
000001f0: 2e67 203d 8c36 09bd cc14 70bd 17ab d2bc
00000200: 61c9 8f3d 63a4 03bc b442 e9bc f78b 0ebd
00000210: 2735 c83d 7b61 193d 3490 56bd ae95 b53c
00000220: 439b 013d 9674 a7bc 472e 2b3d 4f3f 433e
00000230: 2389 13bd 463d 5e3d 9b6c debd 19b2 203d
00000240: c370 d33d f601 6ebd 1239 453e 5b9d 81bc
00000250: 1a54 833d 02a5 34bc de55 5f3c 9e40 ad3c
00000260: dd26 b23d 1bd8 503d 3fa7 e1bd 5cd5 77bc
00000270: 4f6a 81bd 89a7 283e a99e c03d a343 58bc
00000280: f520 a0bd 040d 21bd 35fa 103e 527e 943d
00000290: 0c82 dabc eea3 14bd b8ba 633d 70ce b2bd
000002a0: a3a4 1dbc d38c 233e b625 77bc 3b95 153e
000002b0: 1fd1 323d 49a0 863d cd41 903d 5561 48bc
000002c0: 88b1 fd3d 8712 db3d c5b1 2c3d c5f9 083e
000002d0: 7bc8 6abc 721a 74bc fa1f b43a f958 f7bc
000002e0: 86e7 ce3d 7ff8 44bd 3fc1 023c 18c4 043c
000002f0: 46e6 65bd bac2 9b3d 39e3 323d aee7 7e3d
00000300: 4c26 8cbd 3c12 5bbd 423d f4bb f75a 353e
00000310: 553e 37bd ac83 4c3d 10c0 9ebc a002 e73d
00000320: 1b7b 7d3d f5a8 2d3d f41f b23c fc4d c4bd
00000330: dcc1 afb8 290b 173b 00d3 cbbb c791 a43c
00000340: b04c 093d d4a5 9a3d 8473 c63d 811d 6c3d
00000350: b25b 963d e40e 663d 72a2 95bc 5bc1 67bb
00000360: b30b bb3d 9ad1 583d cc4a 2abe 13e3 0d3d
00000370: 8c30 21bc 543e c4bc 6770 433d 0495 ee3d
00000380: 4b24 e3bc cb16 e43c 5a69 6c3d d15c 1a3d
00000390: 611f 42bd acb8 83bc af2c b3bd c344 d53c
000003a0: 31e5 81bc 8f7b edbd b2dd 433c 329f ad3d
000003b0: 3fec 9fbd 51c0 3f3d 5635 3ebd f84a 07bc
000003c0: ab53 7dbd f008 97bd b68c 333d 575c 8dbc
000003d0: adae 1c3d b314 0dbd 1172 be3c 9e8d 44bd
000003e0: f5e1 453c b44b e53c 9bc0 7b3d 8094 d6bd
000003f0: e778 4b3c 5a0b 133d 069e f23b 05cb 863d

bias f4 [128]
-0.07419991 0.07032263 0.0383191 -0.007317901 -0.083127595 -0.093920715 0.05254627 -0.057545204
0.088978164 -0.070947796 0.048153706 -0.04993625 0.022040524 0.02850436 -0.076027825 0.0034884552
-0.04613399 -0.05153966 -0.092710815 -0.029070323 -0.09063796 0.041796673 -0.060389746 -0.0034556843
0.044719014 -0.0793335 0.050810583 -0.017695922 0.06485118 -0.00051873754 0.026251258 -0.07286984
-0.047854938 -0.045921475 -0.010641155 -0.052174438 -0.087615296 0.009572996 0.0057036 0.045747757
-0.051504917 0.035568576 -0.06614511 -0.044984926 -0.024133114 0.059222694 0.079083 0.025439488
-0.07689562 -0.037648425 -0.07175865 0.03955318 0.059556734 -0.07828613 -0.0152494935 -0.016548788
-0.011679379 0.021828705 0.060946353 0.10892123 -0.049263492 -0.03500849 0.047061272 0.019564634
0.01688642 0.03683756 -0.046241045 -0.059934594 0.06763141 -0.02449156 0.01566613 -0.041559923
-0.018538445 0.060996536 -0.008852609 0.06791896 -0.024391616 -0.024764545 -0.049571853 0.039343048
-0.0045792847 -0.05011409 -0.08361819 0.07253536 -0.012311349 0.039615504 0.0037689195 0.019983282
-0.046035435 0.03547355 -0.071216464 0.0037816828 0.10016271 -0.08241752 -0.01335001 0.023912856
0.0258587 0.021977318 -0.021813925 0.054111075 -0.0028551207 -0.10484833 0.09321433 -0.0017647811
-0.10623575 -0.04666309 0.011868197 -0.004539461 -0.02862077 -0.055867866 0.010773075 -0.10749307
0.064521186 -0.04842794 -0.035705615 0.09497658 -0.0019589837 -0.021644318 -0.04429219 -0.0055944296
0.06703999 0.0051301103 -0.047285587 -0.071817204 -0.08866525 0.061156068 0.04772242 0.033099953
00000000: 1ff6 97bd 5005 903d 7df4 1c3d 01cb efbb
00000010: cd3e aabd 8159 c0bd c23a 573d 85b4 6bbd
00000020: 2f3a b63d 144d 91bd d23c 453d f489 4cbd
00000030: 548e b43c fa81 e93c 7ab4 9bbd 919e 643b
00000040: fff6 3cbd 401b 53bd 2bdf bdbd e324 eebc
00000050: 65a0 b9bd fd32 2b3d 3d5b 77bd c378 62bb
00000060: 492b 373d 9a79 a2bd c21e 503d 0af7 90bc
00000070: b2d0 843d e3fb 07ba e10c d73c c83c 95bd
00000080: 8a03 44bd 2818 3cbd 3d58 2ebc ddb4 55bd
00000090: a66f b3bd 0ed8 1c3c 44e5 ba3b 0062 3b3d
000000a0: d2f6 52bd 5bb0 113d 1677 87bd 1d42 38bd
000000b0: cfb2 c5bc 7f93 723d 45f6 a13d 7966 d03c
000000c0: 737b 9dbd 3c35 1abd 33f6 92bd 8402 223d
000000d0: c3f1 733d 7b54 a0bd 03d9 79bc 5391 87bc
000000e0: de5a 3fbc 1dd2 b23c e2a2 793d 1812 df3d
000000f0: 84c8 49bd 1065 0fbd 52c3 403d 0346 a03c
00000100: 6455 8a3c fbe2 163d 4067 3dbd fa7d 75bd
00000110: 5682 8a3d 86a2 c8bc 4256 803c bd3a 2abd
00000120: f0dd 97bc 81d7 793d 890a 11bc 1819 8b3d
00000130: edd0 c7bc 04df cabc db0b 4bbd 2d26 213d
00000140: d30d 96bb 6f44 4dbd 0340 abbd 6b8d 943d
00000150: 8ab5 49bc de43 223d faff 763b fbb3 a33c
00000160: a78f 3cbd b74c 113d f0d9 91bd 1cd6 773b
00000170: 1b22 cd3d 84ca a8bd 00ba 5abc e5e4 c33c
00000180: a0d5 d33c c709 b43c 1eb3 b2bc 93a3 5d3d
00000190: fa1c 3bbb b9ba d6bd 28e7 be3d 3a50 e7ba
000001a0: 2192 d9bd cc21 3fbd d372 423c c2bf 94bb
000001b0: 1b76 eabc b4d5 64bd 8d81 303c 5425 dcbd
000001c0: af23 843d 605c 46bd 0d40 12bd 1583 c23d
000001d0: 4b62 00bb 6d4f b1bc ba6b 35bd 7a51 b7bb
000001e0: 434c 893d 7c1a a83b 88ae 41bd e614 93bd
000001f0: 2096 b5bd c97e 7a3d 9678 433d d193 073d

weight f4 [2, 128]
0.021721797 0.116687484 -0.0291164 -0.08739929 -0.001743673 -0.011802155 0.12029216 -0.014842576
0.11860323 -0.014163197 -0.044138882 0.033127256 0.042360358 -0.0034489362 -0.06774329 -0.06790591
-0.12558286 0.047887735 -0.023782719 -0.0023432998 -0.06940616 0.004278009 -0.14701246 0.034275986
-0.045068026 0.07489153 -0.13320741 0.07358059 0.14531197 0.05718565 0.07881086 -0.012217841
0.05713888 0.03606687 -0.06331316 0.042186115 0.020094505 0.07758039 0.15715982 0.108629905
0.18040302 -0.08681165 0.06160035 0.03711001 0.03681835 0.13844682 -0.03948147 -0.1013038
-0.0027503136 -0.06263024 -0.023227785 0.030104462 -0.029857881 -0.01557839 0.031993277 0.056268625
-0.036550213 -0.05345176 0.049607 0.1164129 -0.14018802 0.014868112 -0.07716989 0.03856487
-0.016623177 -0.086347334 -0.045254484 -0.03643146 -0.14493436 -0.011078339 0.16471428 -0.08156537
-0.008520555 0.039717566 -0.015683236 0.08920139 -0.016626902 0.04471408 -0.091817126 -0.005699263
0.004792374 -0.018319465 0.027635293 -0.055877518 -0.00036406395 -0.022225646 -0.12310854 0.12599196
0.02884756 0.067272656 0.0036057597 -0.15581805 0.10363641 0.01632263 -0.05361499 -0.080841295
-0.06240107 0.096154295 -0.04693294 0.08882702 -0.0262124 0.018938415 0.096861176 0.0072593004
-0.022251878 -0.03601657 -0.13304283 0.013262837 0.005320156 0.042840306 0.09093255 -0.08037313
-0.17571491 0.03464548 0.112868756 -0.056936517 0.0036224602 -0.0022168895 -0.036010988 0.019489659
-0.03461421 -0.01429347 -0.07887201 -0.067681864 0.044869065 -0.061691955 -0.056221828 -0.064221315
-0.052560642 -0.058225103 0.004572692 0.06504596 -0.04806227 0.015263241 -0.02737784 0.057929292
-0.07873932 -0.016372269 -0.040555302 -0.034880847 -0.09118708 -0.0049026567 -0.062979326 0.007884494
0.10935758 0.03752689 0.049563922 -0.10902265 -0.04513061 0.01687936 0.113105856 0.03572886
0.035951015 -0.037156545 0.14933437 0.06694399 -0.012192893 0.05369305 0.028409515 0.047175497
-0.075427614 0.041048437 0.10422295 0.053742632 -0.026193043 0.026011825 -0.13594975 -0.15321307
-0.13746922 0.09964465 0.027337734 -0.08278385 -0.08237529 -0.14925858 0.087648466 0.06046993
-0.0752085 -0.080426335 0.028863462 0.021657696 -0.040159084 -0.030561319 0.062537014 -0.006490696
-0.030483942 -0.07459252 0.051771257 -0.13590184 0.1583434 0.03963395 -0.0715125 -0.026844505
-0.0032276323 0.08574188 0.059843466 -0.060801744 0.12480226 -0.0065573687 -0.16623278 -0.016830156
-0.05529979 0.07292856 -0.0011350922 -0.059615523 -0.04819811 -0.072325446 0.11581308 -0.012021432
0.020442478 -0.02775855 -0.039974708 0.15479447 0.07920244 0.03299423 0.11966648 -0.08334044
0.024295364 -0.048815608 0.059741613 0.064956084 -0.15858793 0.069585055 -0.04968377 0.040788922
-0.047832046 -0.04685578 0.006330314 -0.053543825 -0.020417675 -0.010448623 -0.15207721 0.015777012
0.043836188 0.014027757 0.15050028 0.030230714 -0.022302736 -0.13862449 -0.16236152 -0.063876286
0.04055576 0.057086427 -0.12078547 0.103371404 0.007447273 0.09128806 0.052342977 0.012396192
-0.034534704 -0.018232819 0.056913048 -0.047745533 0.05200972 0.069419 -0.059770726 0.073090665
00000000: e9f1 b13c d9f9 ee3d 8485 eebc 66fe b2bd
00000010: f58b e4ba d35d 41bc bc5b f63d 472e 73bc
00000020: 40e6 f23d c10c 68bc f9ca 34bd 72b0 073d
00000030: 0e82 2d3d 8c07 62bb febc 8abd 4112 8bbd
00000040: cb98 00be ee25 443d fad3 c2bc 0c92 19bb
00000050: d124 8ebd 8a2e 8c3b 6f8a 16be fa64 0c3d
00000060: 4099 38bd bb60 993d 8667 08be 6cb1 963d
00000070: a9cc 143e 803b 6a3d 9767 a13d 572d 48bc
00000080: 750a 6a3d dbba 133d 54aa 81bd 59cb 2c3d
00000090: 3b9d a43c 78e2 9e3d 81ee 203e 5b79 de3d
000000a0: 92bb 383e 4eca b1bd a650 7c3d aa00 183d
000000b0: d7ce 163d 01c5 0d3e 52b7 21bd 5e78 cfbd
000000c0: 9b3e 34bb 4944 80bd 3248 bebc a29d f63c
000000d0: 8498 f4bc 813c 7fbc 620b 033d ee79 663d
000000e0: adb5 15bd 3cf0 5abd b630 4b3d e369 ee3d
000000f0: 738d 0fbe 6299 733c 3f0b 9ebd 32f6 1d3d
00000100: 542d 88bc dfd6 b0bd c45c 39bd 2839 15bd
00000110: ac69 14be ec81 35bc dcaa 283e bf0b a7bd
00000120: cc99 0bbc e3ae 223d 217a 80bc 38af b63d
00000130: 2435 88bc 1c26 373d 9e0a bcbd e2c0 babb
00000140: 5909 9d3b b412 96bc 6963 e23c d3df 64bd
00000150: d6df beb9 8f12 b6bc 5520 fcbd 0904 013e
00000160: b851 ec3c 3fc6 893d 9c4e 6c3b c48e 1fbe
00000170: 533f d43d 09b7 853c 649b 5bbd 1f90 a5bd
00000180: 4498 7fbd 8bec c43d c13c 40bd f1ea b53d
00000190: 63bb d6bc bc24 9b3c 275f c63d 6ddf ed3b
000001a0: 9249 b6bc 1c86 13bd 613c 08be 5f4c 593c
000001b0: b454 ae3b 5179 2f3d d83a ba3d ab9a a4bd
000001c0: 9cee 33be 6be8 0d3d bc27 e73d 4436 69bd
000001d0: cc66 6d3b 3c49 11bb 4280 13bd c7a8 9f3c
000001e0: a1c7 0dbd 292f 6abc a687 a1bd ca9c 8abd
000001f0: a0c8 373d b4b0 7cbd dc48 66bd 7786 83bd
00000200: d449 57bd 727d 6ebd 85d6 953b d136 853d
00000210: f1dc 44bd ac12 7a3c 7e47 e0bc 4447 6d3d
00000220: 1542 a1bd 231f 86bc 511d 26bd 38df 0ebd
00000230: 4bc0 babd 77a6 a0bb 4efb 80bd f72d 013c
00000240: def6 df3d ccb5 193d 8a03 4b3d 4447 dfbd
00000250: e0da 38bd 9546 8a3c 0ba4 e73d 6d58 123d
00000260: 5f41 133d 7631 18bd 1ceb 183e ee19 893d
00000270: b3c4 47bc 3eed 5b3d 12bb e83c 183b 413d
00000280: cb79 9abd 6822 283d d872 d53d 3c21 5c3d
00000290: cb92 d6bc c016 d53c 6936 0bbe e3e3 1cbe
000002a0: bbc4 0cbe 7f12 cc3d 62f3 df3c 948a a9bd
000002b0: 60b4 a8bd 3ed7 18be 0a81 b33d 51af 773d
000002c0: ea06 9abd 90b6 a4bd 1173 ec3c 7b6b b13c
000002d0: da7d 24bd bb5b fabc 6813 803d e8af d4bb
000002e0: 76b9 f9bc f7c3 98bd 190e 543d da29 0bbe
000002f0: c624 223e 3557 223d 2575 92bd 02e9 dbbc
00000300: af86 53bb 7099 af3d 6c1e 753d 400b 79bd
00000310: 5498 ff3d 32df d6bb ed38 2abe 65df 89bc
00000320: 0882 62bd 925b 953d 60c7 94ba 682f 74bd
00000330: 626b 45bd 5d1f 94bd 682f ed3d 8af5 44bc
00000340: fc76 a73c e665 e3bc 85bc 23bd 7182 1e3e
00000350: e434 a23d f524 073d b313 f53d 65ae aabd
00000360: 1207 c73c e0f2 47bd 9fb3 743d b207 853d
00000370: e064 22be 9c82 8e3d 3581 4bbd 4912 273d
00000380: 89eb 43bd d9eb 3fbd 866e cf3b c550 5bbd
00000390: f842 a7bc b430 2bbc 21ba 1bbe cb3e 813c
000003a0: 938d 333d add4 653c bf1c 1a3e 67a6 f73c
000003b0: 3ab4 b6bc 94f3 0dbe 1942 26be 92d1 82bd
000003c0: cc1d 263d 75d3 693d 5f5e f7bd 63b4 d33d
000003d0: 4108 f43b 3cf5 ba3d 9765 563d 6619 4b3c
000003e0: 4374 0dbd fe5c 95bc a81d 693d d290 43bd
000003f0: 2508 553d 8c2b 8e3d 26d2 74bd 8fb0 953d

bias f4 [2]
0.07659414 -0.082787976
00000000: 63dd 9c3d be8c a9bd
