to_students/saved_models/actor_0.pt (torch, 73032 bytes, 6 tensors)

weight f4 [128, 4]
00000000: b9bc b6be c8a5 8b3e b6f6 853e dc26 eb3e
00000010: 191c 5f3e 69e3 a6be f3b5 6b3e 2542 b9be
00000020: 15bc 9abe bd37 50be f70a 01bf 7fc6 d2be
00000030: c686 bb3e 8ac6 ffbd 6cc5 1c3f 8d76 0e3f
00000040: 369f a93e 8ca5 93be c964 2d3e 32c3 d8be
00000050: 0120 c9be bbe1 75be e824 973e df7b 163f
00000060: d59d 3a3e 8ffb 993b eb9b 383f 361e e73e
00000070: 27eb 48be 3ee9 063d 20b7 01be d6f9 02be
00000080: 4af2 5abd 2e68 e5be a921 e8bc 7241 9d3e
00000090: 9780 2fbe 3f61 44bd 26c2 ac3c d643 a2be
000000a0: 0522 2bbe 885e e13d 0962 0d3f 18a3 be3d
000000b0: 881c 683d 1da0 aa3d e17d b73e 13c0 afbe
000000c0: e85d bc3d 3fef c73e 59f1 e03c c511 aabe
000000d0: 005f aebe c2a4 3ebd e1f0 453e 947c 663e
000000e0: 72d7 aa3e 366e 103d f652 fb3e 2ce2 4a3e
000000f0: 5f19 5e3e b68e 703d ed2e 00bd 4f0c b13e
00000100: c763 d13e 456e 7abe 6ad3 083f 62df 48be
00000110: 94ef 36be 5307 d2bd 5bc3 02be f862 e6be
00000120: ffcd ad3d 5f5c 83be 7d32 853e d2c1 d43e
00000130: 2ace d5be baff e83d de6d 0fbe 31b3 a73e
00000140: adff e2be cabd 4ebd b02f 6a3d baf0 2c3e
00000150: a397 7b3e b4c6 6dbd 18e7 193f 39e5 093f
00000160: 5f00 933e 196b f1be 5390 5abd 63b4 913e
00000170: d1f9 793e 9b4f 9abe ceee 29bf 33c4 a5bd
00000180: dcc9 8d3d f878 8ebe 11a4 013f d267 5cbd
00000190: a83e f1be be3a e0be 8746 5a3e a051 b3be
000001a0: 9c27 aebe f956 2c3a 5c17 b43e 92a6 643d
000001b0: ea30 f2be bba8 14bd 1039 b33e 8f5e 0f3f
000001c0: f332 08be ecec dbbb 7e78 4b3e bee6 96be
000001d0: b477 8fbe 0e3f 0abe bc8e a1be 66c6 d5be
000001e0: d9d5 773e 94c5 823e 9c8e 7d3e d684 283e
000001f0: ddbd ebbe ad8f a2be 7177 e0be 17a5 e8be
00000200: a7c0 933e e442 93be b89f 0fbf 29db 8bbe
00000210: ddd4 bb3e 22cd 993e 29f3 92be 711c 40be
00000220: 7b4a 683d 7805 e93e 106b 0cbe ca51 483e
00000230: d153 a4be 9a7d 41be f7ad cbbe 588b 4c3d
00000240: cc62 3d3e adcb cc3e e674 4e3e eb51 acbe
00000250: 735b bbbd 10c1 7dbe 54df 6d3e 72a4 0ebe
00000260: 87fe 5dbe 23b4 cebe df58 873d 5478 92bd
00000270: bf9d e43e 50ed 9c3e 7222 d8be d3fd 04bf
00000280: 01dd 2fbd 7adb f1bc d8e3 d6bd ce30 4dbe
00000290: 7012 19be 21e0 f83c de5d 33be 0e2f 9fbd
000002a0: 6f2a e53e 589d 413e fb6a e63e f813 f03d
000002b0: d401 e73e bf13 82be 11ce 7cbc 2e50 f93e
000002c0: c0ff 51be 03f4 78bc c94b 5c3c e172 b33e
000002d0: 50bf 9c3e 7da2 42be e849 07bf 6df9 e1bd
000002e0: adca 243e e686 d5be 4e17 683e 27ed cebe
000002f0: 0d34 50bd 0de1 7b3e fc3c 9bbe e541 e8be
00000300: f7e9 093e 45bb 98be c398 c8be c756 bd3e
00000310: af05 95be 7c3e b4be dcab 60be 5607 433e
00000320: a3ec d4be e5d8 88bd e81e f93d c255 0dbf
00000330: 4341 c8bb 42d6 e9bc 8088 4cbd 3a5a 2d3e
00000340: 3e84 d93e 41e6 12be 3f3d aebe 94a4 18bf
00000350: 7f06 f5bd be50 743e d585 9ebd 2f94 0d3e
00000360: 0e5d dc3d 1105 e53d 2f30 72bd b1ab 0cbf
00000370: da6f ce3e 0ac1 cd3e bd57 05be a486 0abd
00000380: c8fd 06be d12e d73e ebbb 463e 425e a1bc
00000390: a54d a33e e1f0 9c3e 2626 a1be 7f4f 85be
000003a0: 9a9c f3be 1331 ef3e 3401 2ebe 6d0c 013f
000003b0: c75b 5c3c b2b6 bbbe c59e 1e3d a8ed 02bf
000003c0: 7342 9abc 3112 6dbe c8ff 033e c921 043f
000003d0: 0084 a0be 16b4 0fbe 88b2 d63e 61d3 183e
000003e0: 0189 7fbe 3a14 553e 8914 853e 8820 953e
000003f0: d438 79bc 4e3b fcbd 4f3a 00bf c3a3 40bc
-0.3569086 0.2727492 0.26164788 0.45928085 0.21788062 -0.32595375 0.23018627 -0.36183277
-0.3022162 -0.20333762 -0.50407356 -0.41167066 0.3662626 -0.1248904 0.6123874 0.55649644
0.3312928 -0.2883724 0.16932978 -0.42336422 -0.3928223 -0.2401189 0.29520345 0.5878276
0.1822427 0.0046991776 0.7211291 0.45140237 -0.19620954 0.03293728 -0.12667513 -0.12790617
-0.05345372 -0.44806045 -0.028336363 0.30713993 -0.17138897 -0.047944304 0.021088671 -0.3169238
-0.16712196 0.110043585 0.55227715 0.093084514 0.056667835 0.083313204 0.35838225 -0.34326228
0.09197599 0.39049718 0.027458834 -0.33216682 -0.34056854 -0.046543844 0.1933017 0.2250846
0.33367497 0.035261355 0.49086732 0.1981284 0.21689366 0.05872985 -0.031294752 0.34579703
0.40896437 -0.24456127 0.5344759 -0.19616464 -0.1786483 -0.10255303 -0.12769835 -0.44997382
0.08486556 -0.2565641 0.26015082 0.41554123 -0.41758853 0.11376901 -0.14006755 0.327539
-0.4433569 -0.050473966 0.057174385 0.16888705 0.24569564 -0.058050826 0.60118246 0.5386539
0.2871122 -0.47152022 -0.053360295 0.28457937 0.24411704 -0.3013886 -0.6638001 -0.08094063
0.06923267 -0.27826667 0.5064097 -0.05380995 -0.47118115 -0.43794817 0.21315967 -0.35023212
-0.34014595 0.0006574239 0.35174072 0.055822916 -0.47302943 -0.036293726 0.35004473 0.5600366
-0.13300686 -0.006711593 0.19870183 -0.29472917 -0.28021014 -0.13500616 -0.3155421 -0.41752928
0.2420267 0.25541365 0.24761432 0.16456923 -0.46043292 -0.3175024 -0.43841127 -0.45438454
0.2885792 -0.2876197 -0.56103086 -0.27315643 0.3668584 0.30039316 -0.2870114 -0.1876085
0.056711655 0.45511985 -0.13712716 0.1956245 -0.32095197 -0.1889557 -0.39781162 0.049937576
0.1849472 0.39999142 0.2016178 -0.33656248 -0.09148302 -0.24780679 0.23229724 -0.13929918
-0.21679126 -0.40371808 0.06608748 -0.07151857 0.446516 0.30649805 -0.4221378 -0.51949805
-0.042935375 -0.0295236 -0.104926765 -0.20038149 -0.1494844 0.03038031 -0.17516276 -0.07772647
0.44758937 0.18907678 0.45003495 0.11722559 0.45118582 -0.2540569 -0.015429989 0.48693985
-0.20507717 -0.015194896 0.013445803 0.35048583 0.3061471 -0.19007297 -0.52847147 -0.11033902
0.1609294 -0.41704482 0.2266514 -0.40415308 -0.05083089 0.24597569 -0.30319965 -0.45362774
0.13468157 -0.29830375 -0.39179048 0.36980268 -0.291059 -0.35203922 -0.21940559 0.19045767
-0.4158679 -0.06681994 0.12164098 -0.5520898 -0.0061112954 -0.028544549 -0.049934864 0.1692895
0.42483705 -0.14345647 -0.34031102 -0.59626126 -0.1196413 0.23858926 -0.0774037 0.13826059
0.10759936 0.11182607 -0.059127983 -0.5494948 0.4031971 0.4018634 -0.13021751 -0.03381981
-0.13182747 0.42027906 0.19407623 -0.019698266 0.31895176 0.30652526 -0.31474417 -0.26037213
-0.47580415 0.46717128 -0.16992646 0.50409585 0.013449616 -0.36662823 0.038725633 -0.51143885
-0.018830514 -0.2315147 0.12890542 0.5161405 -0.31350708 -0.14033541 0.41933084 0.14924385
-0.24954607 0.20808497 0.2599223 0.29126382 -0.015211303 -0.12315999 -0.5008897 -0.011757794

bias f4 [128]
00000000: 934b 693e e3a8 babe dc1b 3d3e f377 d43e
00000010: fde3 e73e 7eb6 d0bd 4cd5 783e a534 83be
00000020: 13bf 073e 72e1 84be cafe ca3d 63e2 05be
00000030: 6f33 e1bc 5808 99be 1422 cebe a5a5 7c3e
00000040: 6e59 61be fad0 803c 8880 abbe 3096 54be
00000050: c9d9 b0be 84e4 8e3e 337f d03e a13d a0bd
00000060: 29c7 c5be 53c4 d43e ce0d a1be 4405 adbd
00000070: 6ccf b3bc 9a8e 9a3d b20d 8b3d ec29 9e3d
00000080: 6c40 1a3e d8b8 06bf 9f8d a53d cbf2 dcbe
00000090: 1da2 5abe 5c3d de3d f5a4 35be 1e21 9f3e
000000a0: 6f9a 40be 8d34 5ebe 524f 8b3d 6ec3 53be
000000b0: b5fc 79be c038 e2be 06d7 b3be ec7d 6bbe
000000c0: f1c0 6cbe 3a59 633e dae1 703d 6f9f 65be
000000d0: 1038 453d d8e1 90be 13f1 e1bb 1038 c83d
000000e0: 2a3f a33e a6fa 973e 62be 213e 02d7 e73e
000000f0: 116f 26be 65aa 16bd 4c6b 013e d6d6 cf3e
00000100: 88e2 46bd f12e cb3d 26ab 91be 71a5 d53e
00000110: 14ed a73e 716a 603c 18b4 36be 0309 ca3e
00000120: 5cdc f43d bd35 5abe b019 a5be 83b7 f8be
00000130: 8a98 0c3d 053a 3c3e 713c a03d 0d93 2fbe
00000140: 3ebe 4c3e e2fe 01be 3c3f 9e3e 2c8f fc3d
00000150: 2082 2d3c cf92 a0be a257 cbbe 9e37 f2bc
00000160: 69e0 903e 072d 06be 6c37 0fbd 13c1 a03e
00000170: b11d c6be d40d 42be c220 90be ad48 a43e
00000180: fae1 413e a2fe 82be 4685 f83d 536b bf3e
00000190: e3d5 953e 597a 013f b883 c43d 6b57 de3d
000001a0: 1158 a23e cc65 783e 5016 e3be a032 f1be
000001b0: 7c0c df3e 4352 fdbd 279e f73e b7e9 76bd
000001c0: 942c c13e e9c9 543e 5fe0 dcbe dfb6 f2be
000001d0: 64e9 a2be ea25 d13e 5039 d23e 5d9d b9be
000001e0: 8a1a 393e be92 81be 44e7 c63e a70b 7fbe
000001f0: 56a7 693e f14f 87bc 9ce6 bfbd 919b 97be
0.22782736 -0.36456975 0.18467659 0.41497764 0.4529113 -0.101910576 0.24300116 -0.25626102
0.13256483 -0.2595325 0.099118784 -0.13074641 -0.027490346 -0.29889178 -0.40260375 0.24672563
-0.22006771 0.015724648 -0.334965 -0.20760417 -0.34541157 0.2790872 0.40722045 -0.07824255
-0.3862851 0.41556033 -0.31455845 -0.0844827 -0.021949492 0.0754673 0.067897215 0.0772284
0.15063637 -0.526258 0.08083653 -0.43153986 -0.21350904 0.10851547 -0.17738707 0.31079954
-0.18808912 -0.21699734 0.068022385 -0.2068002 -0.24412806 -0.44183922 -0.35124987 -0.22997254
-0.23120476 0.22202006 0.05880914 -0.224241 0.04814917 -0.28297305 -0.0068951934 0.09776318
0.31884128 0.29683417 0.15795282 0.45281225 -0.16253306 -0.036783595 0.12638587 0.40593594
-0.04855588 0.09921063 -0.28450888 0.41727784 0.32798064 0.013697253 -0.17842138 0.3946
0.11956093 -0.21309562 -0.3224616 -0.48577508 0.03432516 0.18381508 0.07824028 -0.17145939
0.19994447 -0.12694886 0.3090762 0.12331995 0.010590106 -0.31362006 -0.39715296 -0.029567536
0.2829621 -0.13103114 -0.034964964 0.31397304 -0.38694528 -0.18950588 -0.28149992 0.32086697
0.1893386 -0.25584894 0.12134795 0.3738657 0.29264745 0.5057731 0.09595436 0.108565174
0.31707814 0.24257582 -0.4435296 -0.47108936 0.43564212 -0.12369206 0.48362848 -0.06028148
0.37729323 0.20780148 -0.43139932 -0.47405145 -0.31818688 0.4084924 0.4105935 -0.3625287
0.1807653 -0.25307268 0.38848317 -0.24906789 0.2281774 -0.016517611 -0.09370157 -0.29610875

weight f4 [128, 128]
00000000: 3921 daba 7ec4 ae3c c4eb 273e f054 b7bd
00000010: c4eb 673c e7d4 b83d 592d e8bd d5d1 79bb
00000020: f9f9 3f3d 96f0 9d3c 5d37 f3bd 3b75 523d
00000030: 9b09 183d 7ff5 73bd 2695 9a3d 6af1 a03d
00000040: 85aa bdbd 1efa ac3d 1a59 373c 18be a6bd
00000050: a148 d6bb 4694 80bd 4f39 db3b fb82 013e
00000060: 644a 873d e882 063e 9e03 9bbd 7c6a a5bd
00000070: 291a 423d 1d70 a33d e2ea 663d bedb 7b3d
00000080: fe97 e03d eae9 bd3d 32c9 2cbd 24bb 28bc
00000090: 43ef 2b3b a960 523d 52b0 1abd 1bb3 c93d
000000a0: 055a 5abd 8621 2a3d cc69 23bd 802a 513d
000000b0: 3c21 87bd b264 2b3d 5952 ce3d 9a01 163d
000000c0: 8d24 b6bc 27a5 b13b c9d2 aa3d 4097 a53d
000000d0: 0f35 933c 12ff d3bd 921c 803d e7cb 14bd
000000e0: d610 cebd d8fc 943d 6313 9dbd f677 8c3d
000000f0: 44cb 3bbd 134d 63bc 831b 14bd c9f9 c1bc
00000100: dc53 303d e335 9c3c fd36 9c3c e2e5 a6bd
00000110: 614f 033d 1612 3cbc 4f71 66bd e7a5 a63d
00000120: 5330 d0bc cedc 37bb 8346 82bc 70ef 463c
00000130: 609b ba3c 17be d93d 68d6 3dbd 4ff2 7cbd
00000140: 715c aa3d f121 d73d 1716 013d 25a8 9e3b
00000150: 0698 6ebd 3cf2 57bd 6f9f 0fbd d13f fa3d
00000160: 2131 dd3c cc71 373d 4168 423c e0c1 87bd
00000170: b408 fe3c e5a3 a63b 0918 b0bc b08c b23d
00000180: 03f5 d5bd ca35 db3d a28b 39bd cd45 82bc
00000190: af12 1dbb 1bd3 d9bd 54f3 1abd 1817 fd3d
000001a0: c332 d53c 4cd0 35bd 0180 873d 8311 ee3b
000001b0: 5c4b ec3c b624 ee3c e236 4bbd dfd7 423c
000001c0: ed56 e93d e92f 073e b426 90bb 5fbe 933d
000001d0: 2f8b 54bd def0 923d 93dd 0a3e 9ba2 533d
000001e0: 43ef 2ebe 28d6 9cbd 2340 133e 4926 643b
000001f0: 7ea9 1cbc a451 613d 50dd e93d 3d5a 7f3d
00000200: 579f 0cbe a090 82bb 6e2c 103e 9720 cabd
00000210: 1a67 9d3d 2368 68bd 61e8 c6bd df32 413d
00000220: 541e 0f3d 0489 003d 9149 a5bd 69e7 333d
00000230: 0061 d43c b636 f6bc 91dc ee3d 1d00 87bd
00000240: 1a21 b9bc 9a3c 6f3d 3dea a4bd 8a30 7cbd
00000250: ea88 6ebd da1f 9cbc 8387 cd3c 1b3a 123e
00000260: c952 173d 4e3c 993d ab72 c83c 6b16 89bd
00000270: 7d0e de3b b34d f03d 0b0d adbd a811 57bc
00000280: 364e a93d ddd8 ba38 5a4c a2bd a1f0 a8bd
00000290: e94b 7fbc 13a4 2a3d 037a d23d 3812 aa3b
000002a0: 2baf 4b3c 69f2 35bd dd7c 40bd 26c0 84bd
000002b0: 19ea 773c b960 2b3d 462e 013c eafd 093c
000002c0: 3184 833d df5d cb3b d5f3 253b 728e 653d
000002d0: ae77 433d 141a abbd b61b 183e bc1e a73d
000002e0: ba0f 4b3d a7a8 41bd d122 edba 31b6 093e
000002f0: c952 04bd 26ea c33d 32a6 e3bd ecc7 c83b
00000300: e3e3 bb3d 83d6 e5bc 6a4f 133d eac2 e33c
00000310: eac8 5abd b0eb 033c 1efe 27bd b82a 9c3d
00000320: 575a 623d edf4 3dbd c2ff d73b 9115 1f3c
00000330: b653 d8bc 52b9 59bc 6889 163d ba3b ebba
00000340: dd4a 913d 07e1 ac3c 3043 7d3d 4884 b53c
00000350: e1fd 81bd 6368 863d a939 0b3d 7a2c 5f3d
00000360: 839d 0a3e fbb1 8b3d 9d69 34bd 7614 1cbd
00000370: e9ee f8bb ae51 40bd 1aa6 08bd e3ab c33d
00000380: 1449 a6bd 15d0 52bd a128 b3bd 09e1 873d
00000390: ce7b 903d 3f13 0ebc 31b5 173d 9ee5 793d
000003a0: 4f25 1ebd ef6e a1bd 724a 5f3c ebe1 cf3c
000003b0: 33a2 3cbd 639e 1e3d 9f8c bb3a 816f 05be
000003c0: b47f 573c ad47 d93b 129d 4d3d 8556 193c
000003d0: 824f 36bd 147d cd3d 8480 c93c 6a54 e03d
000003e0: db22 30bd 36e5 d63c 3718 903d 0b01 983d
000003f0: e906 043d 46d2 37ba 097b 9e3c 8ea6 37bb
-0.0016641981 0.02133393 0.16398531 -0.089517474 0.014155332 0.09024983 -0.113367744 -0.0038119454
0.046869252 0.01927976 -0.11875794 0.05138133 0.037118535 -0.059560295 0.07547979 0.07858546
-0.0926104 0.084461436 0.011190677 -0.08141726 -0.0065394198 -0.06278281 0.0066901813 0.12647621
0.06605986 0.13135874 -0.07569049 -0.08076951 0.04738823 0.07980368 0.056376345 0.06148886
0.1096649 0.09273131 -0.042184062 -0.010298524 0.002623514 0.051361714 -0.03776581 0.09848615
-0.053308506 0.041535877 -0.039895818 0.05106592 -0.06598136 0.041844077 0.100743 0.03662262
-0.022234226 0.005421299 0.08340985 0.08085489 0.017969636 -0.10351385 0.06255449 -0.03632727
-0.10061805 0.072747886 -0.07669713 0.06858818 -0.045848146 -0.013873356 -0.03615905 -0.023678677
0.043048725 0.019068664 0.01906919 -0.081493154 0.032058123 -0.011478921 -0.056260403 0.08137112
-0.025413668 -0.0028055194 -0.015902763 0.012142047 0.022779167 0.1063196 -0.04634705 -0.06175452
0.08318413 0.10504521 0.031515207 0.0048418217 -0.05825045 -0.052721247 -0.035064157 0.12219203
0.027000966 0.04478626 0.011865676 -0.066287756 0.03101001 0.0050854557 -0.021495836 0.0871824
-0.10447123 0.10703619 -0.04529918 -0.015902424 -0.0023967435 -0.10635968 -0.037829712 0.123579204
0.026025182 -0.0443881 0.06616212 0.007265271 0.028844528 0.02907024 -0.049612887 0.011892288
0.11393533 0.1320187 -0.004399145 0.07214045 -0.05189055 0.07174848 0.13561086 0.051668745
-0.17083459 -0.076580346 0.14379935 0.0034812859 -0.009561894 0.0550095 0.11419165 0.062341917
-0.13732658 -0.003984526 0.14079449 -0.09869497 0.07685681 -0.056739938 -0.097122915 0.047167655
0.034941033 0.03138067 -0.08070672 0.04392186 0.02592516 -0.030055385 0.116631635 -0.065918185
-0.022598792 0.058407404 -0.0805249 -0.061569728 -0.05823604 -0.019058157 0.025089031 0.14279978
0.036944184 0.07482205 0.02446874 -0.06693729 0.0067766295 0.1173357 -0.084497534 -0.013126768
0.08266871 8.909565e-05 -0.07924719 -0.08249021 -0.015582063 0.04166038 0.10277178 0.00519016
0.0124319 -0.044420633 -0.04699408 -0.06481962 0.015131497 0.04184029 0.007884568 0.008422354
0.06421698 0.0062062587 0.0025322337 0.05604405 0.047721557 -0.083545834 0.14854321 0.08160159
0.049575545 -0.04727998 -0.0018092041 0.13448407 -0.032305513 0.09566145 -0.111156836 0.006127348
0.09174325 -0.028056389 0.035964407 0.027802903 -0.053414263 0.008051798 -0.04101383 0.076253355
0.055261936 -0.046376158 0.006591768 0.009709732 -0.026407104 -0.013288813 0.036752135 -0.0017946877
0.07094357 0.021103395 0.061831653 0.022157803 -0.06347252 0.06562879 0.033990536 0.054485776
0.13536648 0.068210565 -0.044046033 -0.03810545 -0.0075968397 -0.046952896 -0.03336153 0.09554269
-0.08119407 -0.051467974 -0.08747984 0.06634719 0.07054864 -0.008671581 0.037038032 0.061009996
-0.0386098 -0.07882487 0.013628589 0.02537628 -0.046053123 0.038725268 0.0014308876 -0.13030817
0.013153005 0.006630859 0.050198622 0.009359007 -0.04450942 0.100336224 0.024597414 0.10953601
-0.04300199 0.026232343 0.070358686 0.07422074 0.032233153 -0.0007012229 0.019345777 -0.0028022858

bias f4 [128]
00000000: 4cc5 88bd 0722 fd3b 40f1 ba3d 3d9f 90bd
00000010: 8ea4 a4ba f297 1a3d 3710 9dbc 9ae1 d73c
00000020: 5a3f 1cbc b014 6bbd 2c1a 0dbb 5ca5 d8b8
00000030: da85 943c ed39 ad3d 2bb8 da3c c2a9 b2bb
00000040: ae3e b5bd 63cb 0ebc 39f4 373d 5e45 52bc
00000050: dd0c 8abc e333 8e3d d9d2 603d c290 2dbd
00000060: 9f61 10bd d967 f33d 0b1a f0bc da51 7dbd
00000070: 1a76 833d 2386 583d c34b a5bd 1c40 13bc
00000080: 9788 ba3c d6d5 e23c 8ff0 853d 23fc 56bc
00000090: bc52 b83d f73d 713d e503 d2bc 24b6 753d
000000a0: 416d 3d3c 18f5 e3bb d5b5 71bd 6e65 283d
000000b0: 424d a43c e08c b83d f1e9 b53d a75d 6e3c
000000c0: 09ef 49bc 94cc 913c ad1d 893d 3638 273d
000000d0: abb2 503b 2a36 3c3d 2c1a dabc 1637 c6bc
000000e0: b8ed 5c3d 294e 79bd 1128 5fbd dd94 c7bc
000000f0: 33e0 b1bd 3fd3 c6bd 65c5 35bd ce03 cab9
00000100: a660 27bd 871b bf3c f5cc 983d c0f0 f53a
00000110: f13b 283d 40f2 e63d 3980 8c3d 0635 96bc
00000120: d0f4 3e3d e464 883b 501e 623c f104 2cbd
00000130: b648 42bd f9b5 d239 9aae 31bd a4f5 843d
00000140: 2047 e9bc 76fa ba3d 1c57 45bc 47cc fabc
00000150: 8e23 573d 724e 75bd 2f60 b9bc 30ae 0bbc
00000160: 5f36 9fbc 369a 64bc a0b0 ba3d 056c a43d
00000170: 1ccf b3bc 3bc2 04bc 5f3d 89bd 6ee8 c6bc
00000180: 8447 fe3b 4c5b ca3d 35d3 e7bb 0f4a c23d
00000190: 4ad0 d43c d0c0 d23d b2c9 0e3d 2127 cf3c
000001a0: 182c b2bd fe99 02bd 0a88 d0bc 70d6 21bd
000001b0: 3566 783c d8e9 d6b8 a4b4 353c fa69 99bd
000001c0: ea7f 26bd 7b0d 573d f97c 6bbd dd1e 0cbd
000001d0: 4f7a 93bd 8377 a3bd e84c c83c 8259 6e3c
000001e0: b068 c2b9 5ae7 1d3d 1609 88bc 04a7 a0bb
000001f0: b79a 383d 0b52 d23c e909 aabd 87ed a2bd
-0.066782564 0.0077250036 0.09128046 -0.07061622 -0.0012561248 0.037742563 -0.01917277 0.026352692
-0.009536589 -0.057392776 -0.0021530492 -0.00010330483 0.018130232 0.08458314 0.026699146 -0.0054523656
-0.08849846 -0.008715483 0.044910643 -0.012833921 -0.016851837 0.0694349 0.05488858 -0.04237438
-0.03524935 0.11885042 -0.029309293 -0.061845638 0.064190105 0.052862298 -0.08071091 -0.008987453
0.02277021 0.027689856 0.065400235 -0.0131216375 0.09000155 0.058896985 -0.025636623 0.059988156
0.011561693 -0.0069567077 -0.0590113 0.041112356 0.02005637 0.09011245 0.088825114 0.014548696
-0.012325057 0.017797746 0.06695113 0.04082509 0.0031844776 0.045950092 -0.026623808 -0.024196189
0.053937644 -0.060865555 -0.05448157 -0.024362976 -0.08685341 -0.09708261 -0.044377703 -0.00038531277
-0.040863656 0.023328556 0.074609675 0.0018763766 0.04107279 0.11276674 0.06860394 -0.01833583
0.04662019 0.0041624177 0.013801172 -0.0419969 -0.047432624 0.00040189901 -0.043379404 0.06492165
-0.028476298 0.09129803 -0.012044694 -0.030614985 0.052524142 -0.059889264 -0.022628872 -0.008525416
-0.019435106 -0.013952782 0.0911572 0.080284156 -0.021949343 -0.008102949 -0.06701159 -0.024280753
0.00775999 0.09880695 -0.0070747384 0.09486782 0.025978226 0.10290682 0.03486032 0.025287213
-0.086998165 -0.03188514 -0.025455493 -0.039511144 0.015161087 -0.00010247872 0.011090431 -0.074909166
-0.040649332 0.05250309 -0.05749223 -0.03420912 -0.07201063 -0.079817794 0.024450734 0.0145477075
-0.00037080562 0.038550712 -0.016605895 -0.0049027223 0.045069423 0.025673887 -0.083026715 -0.07955461

weight f4 [2, 128]
00000000: 30a7 8c3d 8849 3b3d 7cef 1abe 5f90 6c3b
00000010: 0eec 1f3e ae9c 833d 6d4d 573d 9076 a8bd
00000020: 01bc 313d 94bb 4d3d a179 41bd e78d 06be
00000030: a139 743d e709 0c3d b6a8 d5bd e90e dabd
00000040: c840 acbd a629 143d ec5a 813d 13e3 b53c
00000050: af47 d6bd 24cf 6b3d bae2 66bd b096 98bd
00000060: 6413 02bd a422 85bd 9d73 a73d bce5 023e
00000070: 463e ba3d 3260 72bd 59b3 6fbc 6dd1 b4bd
00000080: 9bc0 4fbd c352 5ebd b7ef da3d eff0 a4bb
00000090: f115 b0bd d6cc febd d468 69bd bc7a 9cbc
000000a0: 11e2 adbd ff75 01bd 2e9f 0b3c 7b9a 21bc
000000b0: ec75 a13c 9f87 1abd cd3f a63d be5e f33b
000000c0: 64b7 f0bc 5155 dd3d 3a10 a53d dd9e f3bd
000000d0: 3df2 8e3d fbd0 033e 3837 eabd 9ed1 fe3d
000000e0: bf47 e73d 6b2d 793d 0208 00be bbbc 80bd
000000f0: 6053 093b 9904 23bd 464a debd 3eab ce3b
00000100: 843f e2bc 698f 0b3e 2e0f c0bd ee8a 73bd
00000110: f997 ed3d 9681 83bd 2fae a03d b470 6a3b
00000120: 57d3 90bd bc80 d1bd 5c06 abbc d9f7 5bbd
00000130: 797d 763d 18eb 03bd fcbf a9bc 6c0b adbd
00000140: 5691 e9bc ec70 e63d e25e a03c e485 a4bd
00000150: de5c a5bc 1b9c a1bd 23ca f8bc 5499 f23c
00000160: ea57 8dbd 6615 a2bd b57b b8bd 43eb 853d
00000170: bb5e 0e3e 7b5d 033d b3ae c2bd 4cdd 313d
00000180: 35d9 fabd 5ae1 01be c11b 8c3d 15f5 b7bd
00000190: ba05 2bbd f93c 9fbd 3861 773d b985 f2bd
000001a0: 089d 8f3d 33b6 f4bd b3d6 fa3c 127d 683d
000001b0: ad1b 77bd ba8e 113e c5a4 323d cdd0 9d3c
000001c0: 8c5a 96bd 4579 e53a be47 0e3d 0a2c 0ebd
000001d0: c24d 323d f893 65bb a473 e73d 57b4 1dbd
000001e0: 37e5 9bbd d1a9 12bc 6d2e 91bc acff d73d
000001f0: 67f1 2f3d d73e c93c d0d8 10bd f30e 843c
00000200: 44bf dbbd 2a19 43bd 3ac8 813d 42d6 363d
00000210: c2cc 3c3c 891c b5bd bcce e4bd 96ef 4f3c
00000220: 7663 1b3d 1101 de3c e272 8cbd 3f0f b73c
00000230: f448 09be 96a7 dcbd cff2 873c 4a6b f53d
00000240: d9f4 1bbc 787b 9a3d 0ffd f4bd 3e1e 58bd
00000250: 83fb d63c f6ae f3bd 31cd ae3d 67a5 3f3d
00000260: e995 ab3d 8870 023e 6147 3ebd 3e3e efbc
00000270: f5d5 febd 1320 203d fd82 88bd 209f c03c
00000280: c1a4 2fbd cafa c53d a2b2 b6bd 8eab 5abc
00000290: 1a26 fa3d 72fb de3d 392b e73c 571e 083e
000002a0: ba3a 943d 8970 a73d ea86 073e 6275 043e
000002b0: 8d62 e83c e39c 043e f791 babd 2448 993d
000002c0: 3fe9 bb3c be4f fabd c1b5 04bd e790 853d
000002d0: 27fc 923d 6294 2ebd e930 c03d ba84 b7bd
000002e0: 3cdf bdbc 73e8 c0bd 5be9 ff3d 0d5f 1f3d
000002f0: 7db7 703d e4c7 06bd 6b61 2b3c 91d8 f2bd
00000300: 8b04 853c 8797 cdbd 1571 cb3d 3290 f93b
00000310: 92de 093d 6279 f03d 4b19 d4bd cf9f babd
00000320: 5cc7 59bc 0b26 1e3d 7043 963d ee1c 91bd
00000330: e3d1 cfbd ae6c fbbc e6c4 e7bd d3ed 073d
00000340: ba49 7e3d 3d2a 38bd 4fbd 173c 7f11 b33d
00000350: 0d93 61bc 32d4 933d 3de4 67bd ff33 1dbd
00000360: 4f9f d93d 4002 bbbd 9c3b 743c 2895 b9bd
00000370: b540 28bd 7157 4d3d a05c a53d 1248 2b3d
00000380: 7753 f0ba e575 933d e7d2 79bd d7d5 4f3d
00000390: 50a4 a33d 6243 b13d ac93 56bd 458f ac3c
000003a0: 974d 733c b28f 783d 1c27 f6bd 3b24 a4bd
000003b0: 041c 6f3c bed9 aabd 2711 ab3c 9a5e 85bd
000003c0: 0bf9 4b3d f92d e2bd e666 873d 2e84 ad3c
000003d0: fdb5 9c3d 886a bbbd a123 e6bd 9ccf f53c
000003e0: f350 ae3d 87bd ed3d 45d3 463d 3ff5 d2bd
000003f0: fa28 7e3d 29fa da3d cfff 6bbd a0c4 c8bb
0.06867826 0.04572442 -0.15130419 0.0036096794 0.15617391 0.06426369 0.052564073 -0.08225739
0.043392185 0.050227717 -0.047235135 -0.13140069 0.05962527 0.03418913 -0.1043257 -0.10647375
-0.084107935 0.03617253 0.0631617 0.022203004 -0.10462891 0.05757059 -0.056368567 -0.07450616
-0.031756774 -0.06500748 0.08176348 0.12782949 0.09093909 -0.05917377 -0.014630162 -0.08829007
-0.050720792 -0.054278146 0.10690253 -0.0050336043 -0.08597935 -0.12441413 -0.056984738 -0.019101493
-0.08490384 -0.03160667 0.008521838 -0.009863491 0.01970955 -0.037726995 0.08117638 0.0074270656
-0.029384322 0.108072884 0.080597356 -0.11895535 0.06979797 0.12872688 -0.114363134 0.12442325
0.11292981 0.06083433 -0.12503055 -0.062859975 0.0020954236 -0.039799307 -0.1085401 0.0063070348
-0.027618177 0.13628925 -0.09377895 -0.059458666 0.11601252 -0.06421201 0.07845723 0.0035772743
-0.0707156 -0.10229632 -0.020877056 -0.053703163 0.060178254 -0.032206625 -0.020721428 -0.08449444
-0.028511684 0.11252007 0.019576494 -0.0803335 -0.020185884 -0.07891103 -0.030369824 0.029614128
-0.06901534 -0.07914238 -0.0900797 0.06539013 0.13903324 0.03207157 -0.095059775 0.043423936
-0.1224846 -0.12683621 0.06841231 -0.089822926 -0.04175351 -0.077753015 0.06039545 -0.11841912
0.07012373 -0.11948814 0.030619955 0.0567599 -0.060329128 0.14214602 0.043614168 0.019264603
-0.07341489 0.0017507455 0.034736387 -0.034709968 0.043531187 -0.0035030823 0.113013536 -0.038502064
-0.07612079 -0.00895162 -0.017722333 0.105468124 0.04295483 0.024566097 -0.03536302 0.01612041
-0.107298404 -0.04763142 0.06337018 0.044637926 0.011523427 -0.08843333 -0.11172244 0.012691399
0.03793665 0.027100118 -0.0685785 0.022346137 -0.13406736 -0.10774152 0.016595272 0.119833544
-0.009518825 0.07543081 -0.119623296 -0.052763216 0.026242977 -0.118986055 0.08535231 0.0467886
0.083782025 0.1273824 -0.04645479 -0.029204484 -0.12443153 0.03909309 -0.06665609 0.023513377
-0.04288173 0.09666975 -0.0892079 -0.013346566 0.122142985 0.10887803 0.028218852 0.13292824
0.07237764 0.08175761 0.1323506 0.12935403 0.028367305 0.12950473 -0.09109872 0.07484463
0.022938369 -0.12222241 -0.032399897 0.065217786 0.071770005 -0.042621978 0.09384329 -0.089608625
-0.023177736 -0.09419336 0.12495681 0.038909007 0.058768738 -0.032905474 0.010460238 -0.11857713
0.016237518 -0.10038667 0.09933678 0.0076160664 0.033659525 0.11741902 -0.10356387 -0.09112512
-0.01329216 0.0386105 0.073370814 -0.07085596 -0.101474546 -0.030691471 -0.11316852 0.03318579
0.06208203 -0.044962157 0.009261443 0.087435715 -0.01376797 0.072182074 -0.05661415 -0.038379665
0.10626089 -0.091312885 0.01490679 -0.090616524 -0.041077334 0.05013222 0.080743074 0.04181678
-0.0018335421 0.07200221 -0.060992148 0.050741043 0.079903245 0.086554304 -0.052386925 0.02106441
0.014850042 0.060683914 -0.12019178 -0.08014723 0.014594082 -0.08342312 0.020882202 -0.065121844
0.049798053 -0.11043925 0.06611423 0.021181192 0.07651899 -0.091511786 -0.112372644 0.030006222
0.085115336 0.11608415 0.048541326 -0.10300683 0.062050797 0.106922455 -0.057617005 -0.006126955

bias f4 [2]
00000000: c32b 43bb 9c4d 5dbd
-0.0029780723 -0.054029092
