to_students/saved_models/critic_3.pt (torch, 72786 bytes, 5 tensors)

weight f4 [128, 4]
0	0xbe95f75e	-0.2929029
1	0x3e10a39c	0.14124912
2	0x3e9c2f42	0.30504805
3	0xbe91c6b6	-0.28471917
4	0xbec71a1a	-0.388871
5	0xbeaf702e	-0.34265274
6	0xbec10986	-0.37702578
7	0x3d7e1700	0.062033653
8	0xbecd1514	-0.40055144
9	0xbbe54000	-0.006996155
10	0xbed55092	-0.41663033
11	0xbdf08d90	-0.11745751
12	0x3e8ad570	0.27115965
13	0xbe7fe7dc	-0.24990791
14	0xbd47b030	-0.04875201
15	0x3d849f50	0.06475699
16	0xbe9403fc	-0.2890929
17	0xbbe4b980	-0.006980121
18	0xbef3a28e	-0.47584957
19	0x3c07e500	0.008294344
20	0xbec565a6	-0.38554114
21	0xbdac0d28	-0.08400947
22	0x3df4a800	0.11946106
23	0x3d9deaf8	0.07710832
24	0x3e920d54	0.28525794
25	0x3e45231c	0.19251674
26	0xbdf5caa0	-0.12001538
27	0xbeec80f6	-0.4619214
28	0xbea3b018	-0.31970286
29	0x3e252a5c	0.1612944
30	0x3e6bb9ac	0.23020047
31	0x3eee8950	0.46589136
32	0x3ee16638	0.440233
33	0xbe5c7ff8	-0.21533191
34	0xbdb1dc58	-0.08684605
35	0x3e4a2d38	0.19743812
36	0xbe5bd230	-0.21466899
37	0xbe6241b4	-0.22095376
38	0xbdd821a0	-0.105532885
39	0xbec693c0	-0.387846
40	0xbed56a8a	-0.41682845
41	0xbdaf5388	-0.08560854
42	0x3e53ad20	0.2067151
43	0xbed8e17c	-0.4235953
44	0xbe849936	-0.2589814
45	0xbeb86924	-0.36017716
46	0x3e0d8044	0.1381846
47	0x3eaf6332	0.34255368
48	0xbe177da0	-0.14794016
49	0xbec2ef38	-0.38073134
50	0x3e94417e	0.28956217
51	0x3e8e5bd4	0.27804434
52	0xbdafd2f0	-0.08585155
53	0x3eee1806	0.46502703
54	0x3d8d7370	0.069067836
55	0x3e9a88ba	0.3018244
56	0xbe930546	-0.2871496
57	0xbe1c4eb8	-0.15264404
58	0xbebcc552	-0.36869293
59	0x3ec1731e	0.3778314
60	0x3ee4ad3e	0.44663423
61	0x3ef3df66	0.47631377
62	0x3e9f1f20	0.31078434
63	0x3e35fdcc	0.17772597
64	0xbeabc874	-0.3355137
65	0x3dda8b08	0.10671049
66	0x3eb69fe4	0.35668862
67	0xbee48d00	-0.44638824
68	0x3e942392	0.28933388
69	0xbee6605e	-0.44995397
70	0xbe90a1fc	-0.28248584
71	0xbebc1b64	-0.36739647
72	0xbe77d9dc	-0.242042
73	0xbedd013c	-0.43165004
74	0xbe8da506	-0.27664965
75	0xbebfe1de	-0.3747701
76	0x3e5f0abc	0.21781439
77	0x3e4b1be8	0.19834864
78	0x3e893fbe	0.26806444
79	0xbdc02e08	-0.0938378
80	0xbeccb420	-0.39981174
81	0xbe8c17ce	-0.27361912
82	0x3edc87b2	0.43072277
83	0xbeb724f8	-0.35770392
84	0xbe55d5fc	-0.2088241
85	0x3ea97f18	0.33104777
86	0xbedd0ec8	-0.4317534
87	0x3df5cea8	0.12002307
88	0xbe7d4854	-0.24734622
89	0xbd811be0	-0.06304145
90	0x3e944c64	0.2896453
91	0xbe6f2630	-0.23354411
92	0xbef2115a	-0.47278863
93	0xbebeb95c	-0.37250793
94	0xbcbfa480	-0.02339387
95	0x3cabc960	0.020970047
96	0xbe8271ca	-0.2547744
97	0xbcc24d00	-0.023718357
98	0x3e966fbc	0.29382122
99	0xbea902fa	-0.33010083
100	0xbeba7064	-0.36413872
101	0xbee55088	-0.44788003
102	0x3e7ca49c	0.24672168
103	0xbd334150	-0.04376346
104	0x3d7d7560	0.061879516
105	0xbea4d56e	-0.32194084
106	0x3ec6c9c4	0.3882581
107	0xbeb57ae2	-0.35445315
108	0x3e9cf3c4	0.30654728
109	0xbeccb7a4	-0.39983857
110	0x3e24b070	0.1608293
111	0x3e72479c	0.2366013
112	0x3eb5e6c4	0.35527623
113	0x3ea481d6	0.32130307
114	0xbea202f8	-0.3164289
115	0x3e919810	0.28436327
116	0x3eb4ca16	0.3531043
117	0xbd9b3588	-0.0757857
118	0x3cc915c0	0.024546504
119	0xbe4094e0	-0.18806791
120	0x3c316c00	0.010828972
121	0x3e90c5f0	0.28276014
122	0xbeca5f18	-0.39525676
123	0xbd04c9b0	-0.032418907
124	0x3e7b7bb8	0.24558914
125	0xbe880afa	-0.26570874
126	0x3eb1e692	0.34746224
127	0xbebf4ffe	-0.37365717
128	0xbe157628	-0.14595854
129	0x3e528564	0.20558697
130	0x3ef815b6	0.48454064
131	0x3e8c2700	0.27373505
132	0xbe9a8452	-0.30179077
133	0xbc6a4a40	-0.014299929
134	0x3ee11330	0.4395995
135	0xbd6ad240	-0.057329416
136	0xbcf637a0	-0.030055821
137	0x3ebb4c40	0.36581612
138	0xbc783540	-0.015149415
139	0x3eed8f00	0.46398163
140	0x3ed9b5ea	0.42521602
141	0xbe615e0c	-0.22008532
142	0xbde623b0	-0.112372756
143	0x3e89bd56	0.26902264
144	0x3dacaae0	0.08431029
145	0xbed12f3e	-0.40856355
146	0xbd932260	-0.07184291
147	0x3ec53ff6	0.3852536
148	0x3e9cb814	0.3060919
149	0xbe7d887c	-0.24759096
150	0x3e2689b4	0.16263467
151	0x3d7a6a30	0.061136425
152	0xbe65bb0c	-0.22434634
153	0x3eaab7be	0.3334331
154	0x3d3094b0	0.04311055
155	0x3ed50c4e	0.4161095
156	0xbdca1e38	-0.09869045
157	0x3e89ac96	0.26889485
158	0xbe9f6736	-0.3113343
159	0xbc881360	-0.016610801
160	0xbef1c098	-0.4721725
161	0x3e46e7e8	0.19424403
162	0x3eb0ae5c	0.34508026
163	0xbe0bcf64	-0.13653332
164	0xbeb1d758	-0.34734607
165	0x3e3907d8	0.18069398
166	0xbd56eb40	-0.052470446
167	0x3e2d8aa0	0.16947412
168	0x3ed92c3a	0.42416555
169	0xbea600a2	-0.32422358
170	0x3e4b5f54	0.19860584
171	0xbee966f0	-0.45586348
172	0x3e9cd840	0.30633736
173	0x3e9509fa	0.29109174
174	0x3efafd10	0.49021196
175	0xbdfece18	-0.12441653
176	0x3eab3c5c	0.33444488
177	0xbef582e4	-0.47951424
178	0x3e118228	0.14209807
179	0xbe7fd504	-0.24983603
180	0xbcffbc20	-0.031217635
181	0xbdde53b8	-0.10855812
182	0xbe8b24c8	-0.271765
183	0x3ecc9566	0.39957732
184	0xbda7eb00	-0.081991196
185	0x3e6cd8b4	0.2312954
186	0x3ea254d8	0.31705356
187	0xbedc1592	-0.42985207
188	0xbe8df1be	-0.27723497
189	0xbeaeded4	-0.3415438
190	0xbdd50920	-0.10402131
191	0x3eb8441e	0.3598947
192	0xbed73920	-0.4203577
193	0x3de3abf8	0.11116785
194	0x3d1d2130	0.03836173
195	0xbe486f20	-0.19573641
196	0xbeaa036a	-0.3320573
197	0x3e96b2d4	0.2943331
198	0xbec5277c	-0.38506687
199	0xbea8fbc2	-0.33004576
200	0xbeffd46e	-0.49966758
201	0x3eb1245a	0.34598047
202	0x3e93c5a4	0.28861725
203	0xbe9a3012	-0.301148
204	0x3ee4f33c	0.44716823
205	0xbe2d85d0	-0.16945577
206	0xbed743a0	-0.4204378
207	0xbed3eb22	-0.4139033
208	0x3e5f1300	0.21784592
209	0xbed88646	-0.42289943
210	0x3e8920a0	0.26782703
211	0x3ec6498a	0.3872798
212	0x3e7f2e38	0.24919975
213	0x3ea88308	0.3291247
214	0x3e4d4f88	0.2004987
215	0xbec4373a	-0.38323385
216	0x3e8c0452	0.27347046
217	0x3ea48100	0.3212967
218	0xbeaff2fe	-0.34365076
219	0xbed7534a	-0.42055732
220	0xbea1a9fc	-0.31575
221	0x3eabe964	0.335765
222	0xbed76a82	-0.42073447
223	0x3de1f0a0	0.11032224
224	0xbe0ec28c	-0.13941401
225	0xbeb65288	-0.3560984
226	0xbee653a0	-0.44985676
227	0x3ee28f52	0.4424997
228	0xbebd3186	-0.36951846
229	0xbe95c804	-0.29254162
230	0xbea00ae0	-0.31258297
231	0x3e103f8c	0.14086741
232	0x3ed21b08	0.41036248
233	0xbedb4814	-0.4282843
234	0x3ecc44a8	0.3989613
235	0xbeec0d06	-0.46103686
236	0xbe92bd1e	-0.2865991
237	0xbe661748	-0.22469819
238	0xbdd26010	-0.10272229
239	0x3ef9d518	0.4879539
240	0xbe687614	-0.22701293
241	0xbe08e618	-0.13369024
242	0xbed14456	-0.4087245
243	0x3ef9ac16	0.48764104
244	0x3eb8cae4	0.36092293
245	0x3e53ffbc	0.20703024
246	0xbe9407ac	-0.28912103
247	0xbe585b70	-0.2112863
248	0xbee84624	-0.45366013
249	0x3ec15c34	0.37765658
250	0x3e9b2464	0.303012
251	0xbef9f47a	-0.48819333
252	0x3ebc7c1c	0.36813438
253	0x3e550b48	0.20805085
254	0xbe5ff388	-0.21870244
255	0x3e312cac	0.17302197

bias f4 [128]
0	0x3e81f598	0.25382686
1	0xbdc5e608	-0.096630156
2	0x3ea0b55e	0.31388372
3	0xbe80e9a6	-0.2517826
4	0x3eeffb84	0.4687158
5	0x3edaa032	0.42700344
6	0x3efc629a	0.49293977
7	0x3e7c7b78	0.24656475
8	0x3d83e250	0.0643965
9	0x3e73f03c	0.23822111
10	0xbdf6fca8	-0.12059909
11	0xbd0e7f50	-0.034789383
12	0xbe6a0a00	-0.22855377
13	0x3ecf8c02	0.40536505
14	0xbde5f8a0	-0.11229062
15	0x3e20cf60	0.15704107
16	0xbdd0f668	-0.10203248
17	0xbe5a32d4	-0.21308452
18	0xbde99810	-0.11405957
19	0xbe8d009c	-0.27539527
20	0xbe4c74c8	-0.19966424
21	0xbe826d42	-0.25473982
22	0x3d8e7200	0.069553375
23	0xbe3edb10	-0.18638253
24	0x3edaa7dc	0.42706192
25	0x3e487434	0.19575578
26	0x3e9c8114	0.3056723
27	0x3ee753ba	0.45181066
28	0x3e5d2cb8	0.2159909
29	0x3dacb9e8	0.08433896
30	0xbdb7b098	-0.089692295
31	0xbdcb49f8	-0.09926218
32	0x3db18720	0.08668351
33	0xbefb7a5c	-0.4911679
34	0x3e5f1b84	0.2178784
35	0xbe4bf4c0	-0.19917583
36	0xbc60c000	-0.013717651
37	0xbe81ee88	-0.25377297
38	0x3e57de58	0.21080911
39	0xbeeac12e	-0.4585051
40	0x3d756390	0.059909403
41	0x3ef5285e	0.4788236
42	0x3e29b2f8	0.16572177
43	0x3e7a7334	0.24458009
44	0xbe058438	-0.13038719
45	0xbd57c7f0	-0.05268091
46	0x3c7e7bc0	0.015532434
47	0xbee7ced4	-0.45274985
48	0xbccfbce0	-0.025358617
49	0xbebebff4	-0.37255824
50	0xbe517664	-0.20455319
51	0xbee24284	-0.44191372
52	0xbeb7e152	-0.35914093
53	0xbe1e3dd0	-0.15453267
54	0x3e6481e0	0.22315168
55	0xbe74f5a0	-0.23921824
56	0x3ed73204	0.42030346
57	0xbef4190c	-0.4767536
58	0x3e825308	0.25453973
59	0x3eb0ad86	0.34507388
60	0x3e2e3f30	0.17016292
61	0x3ee43742	0.44573408
62	0x3ce66760	0.028125465
63	0x3eb0f9e6	0.34565657
64	0x3e5c05c4	0.21486574
65	0x3e91e15c	0.28492248
66	0x3ee61456	0.4493739
67	0x3e424810	0.18972802
68	0xbe151660	-0.14559317
69	0xbec36730	-0.38164663
70	0x3e4d03d0	0.20020986
71	0xbe9c2016	-0.3049323
72	0x3e8b80f6	0.27246827
73	0x3e452b20	0.19254732
74	0xbe87742e	-0.26455826
75	0xbd09e850	-0.033668816
76	0x3e4a0838	0.19729698
77	0xbed8706e	-0.42273277
78	0xbdcf3128	-0.10116798
79	0x3ecd37aa	0.4008153
80	0xbe0fa0c8	-0.14026177
81	0xbefcbd44	-0.49363148
82	0xbef33758	-0.4750316
83	0xbdf48280	-0.119389534
84	0xbed6d23c	-0.4195727
85	0x3eeba1fc	0.46022022
86	0x3e8da264	0.27662957
87	0xbe3d6fc4	-0.18499666
88	0xbe9241d2	-0.28565842
89	0x3eebeec0	0.4608059
90	0xbe043ccc	-0.12913817
91	0x3e7bc32c	0.24586171
92	0xbdafb210	-0.085788846
93	0xbed50238	-0.41603255
94	0xbe7d1e48	-0.24718583
95	0xbe4de808	-0.20108044
96	0x3dbba1c0	0.09161711
97	0xbe8b4f98	-0.27209163
98	0xbe58ddf8	-0.21178424
99	0x3d7eff80	0.062255383
100	0x3dd77658	0.10520619
101	0x3cc504c0	0.024050117
102	0x3ef8ad58	0.4856975
103	0xbeba4286	-0.36378878
104	0xbea50962	-0.3223372
105	0x3d75cdc0	0.06001067
106	0x3efba2a2	0.49147516
107	0xbec868bc	-0.39142406
108	0xbc06d5c0	-0.008229673
109	0x3dd34f58	0.10317868
110	0xbe1ef1b4	-0.1552189
111	0x3edea108	0.43482232
112	0x3ecab90c	0.39594305
113	0xbead0f2c	-0.33800638
114	0x3e8474b6	0.25870293
115	0x3e5f7ecc	0.21825713
116	0xbd34cd60	-0.044141173
117	0xbe3a3dfc	-0.18187708
118	0x3d8c34d0	0.06846011
119	0xbe879560	-0.26481152
120	0x3dd53db8	0.104121625
121	0x3dccd318	0.100012004
122	0x3ed4c908	0.41559625
123	0x3e8950bc	0.26819408
124	0x3d8e1cf0	0.06939113
125	0xbe1152f0	-0.14191794
126	0x3eb7d862	0.35907274
127	0xbe1e2dec	-0.15447205

weight f4 [128, 128]
0	0x3caf0f09	0.021369474
1	0xbdadd1d5	-0.08487288
2	0x3d8c2f51	0.068449624
3	0xbcf43fa4	-0.029815502
4	0xbd48128d	-0.048845816
5	0xbd58c5a4	-0.05292286
6	0xbdb3168f	-0.08744537
7	0x3d94fd9f	0.07274937
8	0x3d2e6ed5	0.042586166
9	0xbd9b7391	-0.07590402
10	0x3d951842	0.072800174
11	0x3cf9daa0	0.030499756
12	0x3b03601f	0.0020046306
13	0xbd4fb46e	-0.05070918
14	0x3db3b33c	0.087744206
15	0xbd1306eb	-0.03589527
16	0x3d98faf7	0.07469743
17	0xbcced7b6	-0.025249343
18	0xbd162883	-0.03665973
19	0xbc47fb48	-0.012205906
20	0xbd253d9a	-0.04034195
21	0x3d8cb219	0.06869907
22	0x3bcc68bb	0.006238071
23	0xbdaed02b	-0.08535799
24	0x3d54a9e5	0.051919837
25	0x3bee2e59	0.0072687087
26	0xbd0e24b0	-0.034702957
27	0x3ccd8c42	0.025091294
28	0xbcb0b30e	-0.021569755
29	0x3d83dd76	0.06438725
30	0xbd2899ff	-0.041162487
31	0x3d072b2d	0.03300016
32	0x3d685d3c	0.05672954
33	0x3d31772b	0.043326538
34	0x3d38c64b	0.045110982
35	0x3cd6540a	0.02616312
36	0xbd0227e0	-0.03177631
37	0xbdab6ae6	-0.08369999
38	0x3c424085	0.011856203
39	0xbd114e45	-0.035475034
40	0xbb1a16a9	-0.0023512042
41	0x3cc5f1d0	0.024163157
42	0xbc4a9d6b	-0.012366633
43	0x3d0d7465	0.03453483
44	0xbd85db73	-0.06535997
45	0xbd66d322	-0.056353696
46	0xbce17abd	-0.027524346
47	0xbda16686	-0.07880883
48	0xbca9cc5f	-0.020727335
49	0xbd1d051f	-0.038334962
50	0x3d2db430	0.04240817
51	0x3c5d6c55	0.013514598
52	0x3d30feac	0.043211624
53	0xbda81fec	-0.082092136
54	0x3d80a5b2	0.06281604
55	0xbd226830	-0.039650142
56	0xbd58e7b9	-0.052955363
57	0xbb85b99a	-0.0040809633
58	0x3db2a11f	0.08722138
59	0x3d9935d9	0.07480974
60	0x3db0b4d7	0.086282425
61	0x3d2a6e66	0.04160919
62	0x3d94bf10	0.07263005
63	0xbd883580	-0.06650829
64	0xbca05d78	-0.01957582
65	0x3db16dc1	0.08663512
66	0x3d514c0b	0.05109791
67	0xbd93db99	-0.07219619
68	0x3d54ae5f	0.051924106
69	0xbda07bcc	-0.078361124
70	0x3d5e3118	0.05424604
71	0x3d3b82c6	0.045779012
72	0x3c1f7409	0.009732255
73	0x3cd6dfd9	0.026229786
74	0x3d81e44e	0.06342374
75	0xbd40de2c	-0.04708688
76	0x3da6e66b	0.081494175
77	0x3cd6d6f1	0.026225539
78	0xbce3279f	-0.027728854
79	0xbbfb2489	-0.0076642674
80	0xbd332de5	-0.04374494
81	0x3d827c44	0.06371358
82	0x3cfe4659	0.031039404
83	0x3cd9415a	0.02652042
84	0xbd8742a6	-0.06604509
85	0xbbf53ca7	-0.007484037
86	0x3d1ac7c4	0.037788168
87	0x3d5fbcfc	0.05462359
88	0xbce4ac11	-0.027914079
89	0xbcbf1255	-0.023324171
90	0xbd6ccaba	-0.057810523
91	0x3ba4a264	0.0050242413
92	0x3d882e82	0.06649496
93	0x3d914c1c	0.07094595
94	0xbc368ae0	-0.011141509
95	0xbb65943d	-0.0035030984
96	0xbd322f1b	-0.043501955
97	0xbd1a93d1	-0.037738625
98	0x3d1a907b	0.037735444
99	0x3ba0d378	0.0049080215
100	0xbc6429e4	-0.013926003
101	0xbbbe81dc	-0.0058138203
102	0xbcfb09b5	-0.030644277
103	0xbd88ca9e	-0.06679271
104	0x3d6c0621	0.057623032
105	0xbd76ca22	-0.060251363
106	0x3cc4dfda	0.024032522
107	0x3d3c77eb	0.0460128
108	0x3c850ef8	0.01624249
109	0x3d4b7a4d	0.049677182
110	0x3d9fc50a	0.07801254
111	0x3d9ed382	0.07755186
112	0xbd9d26fc	-0.07673451
113	0x3d0c0fa6	0.03419461
114	0xbba2b0db	-0.0049649305
115	0xbd940a09	-0.072284766
116	0x3d8f851d	0.07007811
117	0x3c7b0c95	0.015322824
118	0x3b8d4335	0.00431099
119	0x3da664b8	0.08124679
120	0x3b0333ed	0.0020019964
121	0x3d2de31c	0.042452917
122	0xbd3fcc83	-0.046825897
123	0xbcd5a535	-0.026079753
124	0xbd63ce0c	-0.055616423
125	0xbd95b9a1	-0.073107965
126	0x3d72980d	0.05922704
127	0x3d3f173a	0.04665301
128	0x3c2c87b3	0.0105304
129	0x3d11941e	0.035541646
130	0x3d84695d	0.06465409
131	0x3db1319e	0.08652042
132	0xbd959df2	-0.07305516
133	0x3b7a35cc	0.0038179038
134	0xbd9205b4	-0.07129994
135	0xbcfa615f	-0.030564008
136	0xbd78c52a	-0.060734905
137	0x3d78fae1	0.06078613
138	0x3d86dde0	0.06585288
139	0xbd5d7daa	-0.05407492
140	0xbd31dfad	-0.043426204
141	0xbd87ee97	-0.06637304
142	0xbca546d7	-0.02017538
143	0x3d9b4e09	0.075832434
144	0x3d492d23	0.04911531
145	0x3dac1407	0.084022574
146	0xbda4cad7	-0.08046501
147	0xbd20908f	-0.03920036
148	0x3d3d7775	0.0462565
149	0xbd31625a	-0.043306686
150	0x3bfd711d	0.0077344314
151	0x3cfdc2f0	0.030976743
152	0xbd0f30d3	-0.03495867
153	0x3d6d6fdc	0.057968006
154	0x3cd3e2f5	0.025865057
155	0xbd32e149	-0.04367188
156	0xbd5049f3	-0.050851773
157	0x3d708d14	0.058728293
158	0xbcbb7340	-0.022882104
159	0xbd9f3b9a	-0.0777504
160	0xbdaf1492	-0.08548845
161	0xbd88d73e	-0.06681679
162	0xbd8eb353	-0.06967797
163	0xbda036e6	-0.07822971
164	0x3d47d62b	0.04878823
165	0x3ca960d9	0.020676063
166	0xbd6e03ab	-0.058108967
167	0x3c278398	0.0102242455
168	0xbdaf4924	-0.08558872
169	0x3da146bb	0.07874819
170	0xbba13660	-0.004919812
171	0x3ad4ec63	0.0016244765
172	0xbdb45259	-0.08804769
173	0x3cb5e0f8	0.022202
174	0xbd6ab033	-0.057296943
175	0x3c37d44c	0.011220049
176	0xbc47bb77	-0.012190691
177	0xbd6f370f	-0.058402117
178	0xbd517610	-0.051137984
179	0xbd11469a	-0.03546772
180	0x3da18809	0.07887275
181	0xbd4650ee	-0.048417024
182	0x3d55d6f8	0.052206963
183	0x3c27e1f3	0.010246742
184	0x3d878956	0.066179916
185	0x3d1dea9c	0.03855382
186	0x3d0ea361	0.03482378
187	0x3d244cf7	0.040112462
188	0xbd286b07	-0.041117694
189	0xbc798c89	-0.01523126
190	0x3d68c2f6	0.056826554
191	0xbd869849	-0.06572015
192	0xbdadc1f0	-0.08484256
193	0x3cb83c27	0.02248962
194	0xbd9b6ad4	-0.07588735
195	0xbcdd4012	-0.02700809
196	0x3d6e1e29	0.05813423
197	0xbd1b6730	-0.037940204
198	0xbd6118e7	-0.05495539
199	0x3d44ef1f	0.048079606
200	0x3d3ae3b2	0.045627303
201	0xbd63064c	-0.055425927
202	0x3d683a6f	0.05669635
203	0x3ce6486b	0.028110703
204	0xbd9cc393	-0.0765449
205	0x3cf81e8a	0.030288
206	0x3c79c701	0.0152452
207	0x3bdc28be	0.006718724
208	0xbd63dab2	-0.055628486
209	0x3d013aad	0.0315501
210	0x3d2da36b	0.042392176
211	0x3d70828a	0.05871824
212	0x3d9ecb75	0.0775365
213	0xbdb25cdb	-0.08709117
214	0xbdb22af0	-0.08699596
215	0x3d93ec8c	0.07222852
216	0x3d1979b1	0.03746957
217	0xbccb0327	-0.024781777
218	0x3d3b9112	0.045792647
219	0x3c80fa92	0.015744481
220	0xbca7e6a8	-0.020495728
221	0xbd3ef9f3	-0.04662509
222	0xbd14fe42	-0.03637529
223	0x3d387ba6	0.045039795
224	0x3d9bd098	0.076081455
225	0xbcd8dc03	-0.026472097
226	0x3d1a92e6	0.03773775
227	0xbb90a64c	-0.0044143554
228	0x3c6fd3d4	0.014637906
229	0x3d163fd6	0.036681972
230	0xbdaaab9d	-0.08333514
231	0xbd9e3287	-0.07724481
232	0x3b9324a3	0.0044904514
233	0x3d8712f1	0.0659541
234	0x3d260951	0.04053623
235	0xbb12781b	-0.002234942
236	0x3d2eaed0	0.042647183
237	0x3d5d2b85	0.05399658
238	0x3d796629	0.060888443
239	0x3cb36b07	0.02190162
240	0xbc58a175	-0.013222088
241	0xbc7d7d00	-0.015471697
242	0xbcc39153	-0.023873007
243	0x3d4ef51a	0.050526716
244	0x3a27ce27	0.00064012635
245	0xbc8b2152	-0.016983662
246	0x3d9612a3	0.073277734
247	0xbd093a56	-0.0335029
248	0xbd9845ca	-0.07435186
249	0x3b6e115b	0.0036326263
250	0xbd0cda3a	-0.034387805
251	0xbb3618b9	-0.0027785732
252	0x3d2e7ea1	0.04260123
253	0xbb875a88	-0.004130665
254	0xbb2ec54c	-0.002666789
255	0xbb41a3b8	-0.0029547047

bias f4 [128]
0	0x3d741f33	0.059600066
1	0xbd8a3b80	-0.0674963
2	0xbd9315a0	-0.07181859
3	0xbd423f1e	-0.047423474
4	0xbd68330b	-0.056689303
5	0xbd1a1a43	-0.0376227
6	0x3d7401b1	0.059571926
7	0x3d8e6f08	0.06954771
8	0x3da15185	0.07876877
9	0xbd4bc205	-0.04974558
10	0xbdae334a	-0.08505876
11	0x3da7a084	0.08184913
12	0x3d15f5f7	0.036611523
13	0xbbc2c40b	-0.0059437803
14	0xbd5edd93	-0.05441053
15	0x3da54fed	0.08071885
16	0xbcece58b	-0.028918048
17	0xbd51ef30	-0.051253498
18	0x3d7098ae	0.058739357
19	0xbccee28a	-0.025254507
20	0x3b822986	0.003972235
21	0x3cb719d2	0.02235118
22	0x3da3e019	0.080017276
23	0xbd9a9c75	-0.07549373
24	0xbbf34f44	-0.0074252207
25	0x3da79fbb	0.08184763
26	0x3d91d8fc	0.071214646
27	0x3cbacb44	0.022802003
28	0x3d9dd0f6	0.07705872
29	0xbd37afaf	-0.04484528
30	0xbce32ac2	-0.02773035
31	0xbbb1998d	-0.005419916
32	0x3da74c71	0.08168877
33	0x3cc7f24a	0.024407525
34	0x3d9ccc9b	0.07656213
35	0xbc096cba	-0.008387739
36	0xbdb4ec69	-0.08834154
37	0x3d097802	0.033561714
38	0xbd88219c	-0.066470355
39	0x3c57f136	0.013180068
40	0x3c9c1d7a	0.019057024
41	0x3da21d2a	0.07915719
42	0x3cc47ff9	0.023986803
43	0xbcafd6a9	-0.021464663
44	0xbd61ee92	-0.05515916
45	0x3cbf1715	0.023326436
46	0x3d975038	0.073883474
47	0xbdb15d63	-0.0866039
48	0x3d356ccb	0.044293206
49	0x3d30333f	0.043017622
50	0x3c3c6c21	0.011500389
51	0x3d05b6aa	0.032644905
52	0x3a51a8f0	0.0007997891
53	0xbd1c98e9	-0.038231764
54	0xbd82e7d1	-0.06391872
55	0x3c849a1e	0.01618677
56	0xbd8f39b6	-0.06993429
57	0xbc091f2b	-0.008369247
58	0xbd7c7951	-0.061639134
59	0xbce51156	-0.027962368
60	0x3d6e282c	0.05814378
61	0xbd74fc7b	-0.059811097
62	0x3ccc6471	0.024950238
63	0xbcee52da	-0.029092241
64	0x3d3aec06	0.045635246
65	0xbd8eeace	-0.06978379
66	0xbceb4755	-0.028720537
67	0xbd3b36fb	-0.04570673
68	0xbd38f343	-0.045153867
69	0xbd1458a3	-0.036217343
70	0x3d2b2960	0.041787505
71	0x3cafc96d	0.021458352
72	0x3d76a6ca	0.060217656
73	0xbcec3fd0	-0.028839022
74	0xbd8053c0	-0.06265974
75	0xbc8758b8	-0.016521797
76	0x3c91afa4	0.017783947
77	0xbd944c72	-0.07241143
78	0xbd1c2426	-0.03812041
79	0xbd5eacfb	-0.054364186
80	0xbd3106ce	-0.04321938
81	0xbd11a722	-0.03555978
82	0xbd6655f7	-0.056234326
83	0xbb9cc816	-0.0047845943
84	0x3d3ea965	0.046548266
85	0xbda0b4f4	-0.07847014
86	0xbd16998f	-0.03676754
87	0x3db42a52	0.087971345
88	0x3d503887	0.05083516
89	0x3d9806a2	0.0742314
90	0x3d75f32f	0.06004637
91	0xbdb00145	-0.08593992
92	0xbd7025be	-0.058629744
93	0xbd571fd1	-0.052520577
94	0x3d643bd0	0.055721104
95	0x3c87000b	0.016479513
96	0xbd6daa7c	-0.058023915
97	0x3d1864c8	0.037205487
98	0xbcdd339b	-0.027002146
99	0xbc31346f	-0.010815724
100	0xbceb56a5	-0.028727839
101	0xbd6369a8	-0.055520684
102	0xbc0baf0d	-0.008525622
103	0xbd9874f9	-0.07444186
104	0x3d2a9ba2	0.04165233
105	0x3d54b41e	0.051929586
106	0x3c15eab5	0.009150197
107	0x3d694703	0.056952488
108	0x3d4f70b4	0.05064459
109	0xbdb40611	-0.087902196
110	0xbdb2d976	-0.08732884
111	0x3cf1e305	0.029527197
112	0xbd1707d3	-0.036872696
113	0x3d56f30f	0.052477892
114	0x3c6b272e	0.014352603
115	0xbd9b6cb3	-0.07589092
116	0x3c5cd2c1	0.013477982
117	0x3d3403e8	0.043949038
118	0xbca4a8fa	-0.020100106
119	0x3cd70235	0.02624617
120	0x3ce2b7ad	0.027675474
121	0x3d75a1bc	0.059968695
122	0x3d2e784d	0.042595197
123	0xbd198ae2	-0.037485965
124	0xbd7be3e5	-0.061496634
125	0xbcd21eb2	-0.025649402
126	0xbd43231e	-0.047640912
127	0x3cbe29e4	0.023213334

weight f4 [1, 128]
0	0xbcfa02f9	-0.030518996
1	0x3da9bb54	0.08287683
2	0xbd4040f6	-0.04693695
3	0xbd7851bd	-0.060624827
4	0xbc43d781	-0.011953236
5	0xbd235f3c	-0.039885744
6	0x3d6f662e	0.058447056
7	0x3ccaa390	0.024736196
8	0xbbb5bac4	-0.005545946
9	0xbaf212d6	-0.0018468748
10	0xbd63bb98	-0.055598825
11	0xbd7a7a2d	-0.061151672
12	0x3ceab775	0.028651932
13	0x3d847e10	0.06469357
14	0x3ccae53c	0.02476751
15	0x3dac64ee	0.08417688
16	0xbd176151	-0.036958043
17	0x3b9e1e98	0.0048254244
18	0x3db19e31	0.08672751
19	0x3d51a901	0.051186565
20	0x3d866dce	0.06563912
21	0xbd9fde8a	-0.07806118
22	0xbcb82488	-0.022478357
23	0xbd58786c	-0.05284922
24	0x3c57b745	0.013166253
25	0xbd69484e	-0.05695372
26	0xbd646435	-0.055759627
27	0x3d3623e4	0.04446782
28	0xbb9efadb	-0.0048516816
29	0xbd8183b1	-0.06323946
30	0x3cf6a7d7	0.03010933
31	0x3d3a3bde	0.04546725
32	0x3d6fb1bb	0.058519106
33	0x3d5cf74e	0.053946786
34	0xbd648505	-0.05579092
35	0x3d5e1d8f	0.054227408
36	0x3d367522	0.0445453
37	0xbb2161c6	-0.0024624928
38	0xbd9d8813	-0.0769197
39	0xbc6f34a4	-0.014599953
40	0x3d2a6439	0.041599486
41	0x3cb3b16d	0.02193519
42	0xbd1ab1cd	-0.03776722
43	0x3d0a320b	0.03373913
44	0x3cac104a	0.021003861
45	0xbd7bc8a3	-0.06147064
46	0xbd644f04	-0.055739418
47	0x3cf69974	0.030102469
48	0xbdacf467	-0.084450535
49	0x3d15849e	0.036503427
50	0x3d5f767f	0.054556366
51	0x3c6bcb3b	0.014391716
52	0xbc13e27f	-0.009026169
53	0xbd7aad85	-0.061200637
54	0x3ca4de0e	0.020125415
55	0xbd9ad032	-0.07559241
56	0xbc017886	-0.00790227
57	0x3d2728fa	0.040810563
58	0x3c32efbf	0.010921418
59	0xbd410e7a	-0.047132947
60	0xbd4058d7	-0.046959724
61	0xbc5b2a45	-0.013376777
62	0xbdb13408	-0.08652502
63	0x3d16f9c5	0.036859293
64	0x3d8542e7	0.06506901
65	0xbda1e506	-0.07905011
66	0x3d4f1f32	0.05056686
67	0xbd8a5caa	-0.067559555
68	0xbd81130a	-0.063024595
69	0x3c2cde8b	0.010551105
70	0x3d77d259	0.060503338
71	0x3d1589e9	0.036508474
72	0xbc02619b	-0.007957841
73	0xbcd269e4	-0.025685258
74	0xbd567f04	-0.052367225
75	0x3a396b5f	0.00070731895
76	0x3d6cb50a	0.05778984
77	0x3cc07c75	0.023496846
78	0xbc5add54	-0.013358433
79	0x3bbcd999	0.0057632443
80	0x3d6facd3	0.058514427
81	0x3dab17ef	0.08354174
82	0xbd697789	-0.056998763
83	0x3c2abb27	0.010420597
84	0x3c824b8d	0.015905166
85	0x3db1760c	0.08665094
86	0xbd2ba614	-0.04190643
87	0x3ca6295b	0.020283392
88	0xbc281fde	-0.010261504
89	0x3c2bc6e2	0.010484429
90	0xbd99ee5d	-0.07516167
91	0x3dab69e7	0.08369809
92	0xbd101af7	-0.035181966
93	0x3d1d5437	0.03841039
94	0x3d0e7b9e	0.03478586
95	0xbd7227d2	-0.059120007
96	0x3d86922a	0.06570847
97	0xbd8237b1	-0.063582785
98	0x3cce4c2b	0.025182804
99	0x3d948bd2	0.07253231
100	0xbd777e15	-0.060422976
101	0xbc1789de	-0.009249179
102	0x3d8f908b	0.07009991
103	0x3d38ac08	0.045085937
104	0x3d94b352	0.07260765
105	0xbd807ff4	-0.06274405
106	0x3b755ec5	0.003744052
107	0x3ca5dea5	0.020247767
108	0x3c6c8c7e	0.014437793
109	0xbd0dfc8f	-0.034664687
110	0xbb21c6e4	-0.0024685198
111	0xbbcedb67	-0.006312776
112	0x3cb49074	0.022041537
113	0x3d6fb2ea	0.058520235
114	0xbc2e9d4d	-0.010657621
115	0xbd7e1c9b	-0.062039
116	0xbca9c7c1	-0.020725133
117	0x3b2fbf70	0.0026816987
118	0x3cf035e5	0.029322574
119	0x3d88038a	0.066413
120	0x3d9881a0	0.07446599
121	0x3b1ce980	0.0023942888
122	0xbd4e39cc	-0.05034809
123	0xbd12e127	-0.035859253
124	0xbdb3193d	-0.08745048
125	0x3d80e403	0.0629349
126	0xbd1ba619	-0.0380002
127	0xbd4dffd0	-0.05029279
